ir_version: 10
producer_name: "onnxruntime.transformers"
producer_version: "1.21.0"
graph {
  node {
    output: "_to_copy"
    name: "node_Constant_5723"
    op_type: "Constant"
    attribute {
      name: "value"
      t {
        dims: 0
        data_type: 7
        name: "_to_copy"
        raw_data: ""
      }
      type: TENSOR
    }
  }
  node {
    output: "val_9"
    name: "node_Constant_36"
    op_type: "Constant"
    attribute {
      name: "value_ints"
      ints: 0
      type: INTS
    }
  }
  node {
    output: "dim_9"
    name: "n4_2_n1_14"
    op_type: "Constant"
    attribute {
      name: "value_int"
      i: 1
      type: INT
    }
  }
  node {
    output: "_to_copy_11"
    name: "node_Constant_5806"
    op_type: "Constant"
    attribute {
      name: "value"
      t {
        dims: 0
        data_type: 7
        name: "_to_copy_11"
        raw_data: ""
      }
      type: TENSOR
    }
  }
  node {
    output: "val_120"
    name: "node_Constant_252"
    op_type: "Constant"
    attribute {
      name: "value_ints"
      ints: 0
      type: INTS
    }
  }
  node {
    output: "val_198"
    name: "node_Constant_383"
    op_type: "Constant"
    attribute {
      name: "value_ints"
      ints: -1
      type: INTS
    }
  }
  node {
    output: "val_203"
    name: "node_Constant_388"
    op_type: "Constant"
    attribute {
      name: "value_ints"
      ints: 1
      type: INTS
    }
  }
  node {
    output: "val_204"
    name: "node_Constant_390"
    op_type: "Constant"
    attribute {
      name: "value_ints"
      ints: 0
      type: INTS
    }
  }
  node {
    output: "val_216"
    name: "node_Constant_403"
    op_type: "Constant"
    attribute {
      name: "value_ints"
      ints: 0
      type: INTS
    }
  }
  node {
    output: "val_254"
    name: "node_Constant_454"
    op_type: "Constant"
    attribute {
      name: "value_ints"
      ints: -1
      type: INTS
    }
  }
  node {
    output: "val_259"
    name: "node_Constant_459"
    op_type: "Constant"
    attribute {
      name: "value_ints"
      ints: 1
      type: INTS
    }
  }
  node {
    output: "val_264"
    name: "node_Constant_465"
    op_type: "Constant"
    attribute {
      name: "value_ints"
      ints: -1
      type: INTS
    }
  }
  node {
    output: "val_269"
    name: "node_Constant_470"
    op_type: "Constant"
    attribute {
      name: "value_ints"
      ints: 1
      type: INTS
    }
  }
  node {
    output: "val_366"
    name: "node_Constant_631"
    op_type: "Constant"
    attribute {
      name: "value_ints"
      ints: 1
      type: INTS
    }
  }
  node {
    output: "val_397"
    name: "node_Constant_666"
    op_type: "Constant"
    attribute {
      name: "value_ints"
      ints: 1
      type: INTS
    }
  }
  node {
    output: "val_438"
    name: "node_Constant_719"
    op_type: "Constant"
    attribute {
      name: "value_ints"
      ints: 1
      type: INTS
    }
  }
  node {
    output: "val_500"
    name: "node_Constant_847"
    op_type: "Constant"
    attribute {
      name: "value_ints"
      ints: 1
      type: INTS
    }
  }
  node {
    output: "val_530"
    name: "node_Constant_881"
    op_type: "Constant"
    attribute {
      name: "value_ints"
      ints: 1
      type: INTS
    }
  }
  node {
    output: "val_570"
    name: "node_Constant_933"
    op_type: "Constant"
    attribute {
      name: "value_ints"
      ints: 1
      type: INTS
    }
  }
  node {
    output: "val_632"
    name: "node_Constant_1061"
    op_type: "Constant"
    attribute {
      name: "value_ints"
      ints: 1
      type: INTS
    }
  }
  node {
    output: "val_662"
    name: "node_Constant_1095"
    op_type: "Constant"
    attribute {
      name: "value_ints"
      ints: 1
      type: INTS
    }
  }
  node {
    output: "val_702"
    name: "node_Constant_1147"
    op_type: "Constant"
    attribute {
      name: "value_ints"
      ints: 1
      type: INTS
    }
  }
  node {
    output: "val_764"
    name: "node_Constant_1275"
    op_type: "Constant"
    attribute {
      name: "value_ints"
      ints: 1
      type: INTS
    }
  }
  node {
    output: "val_794"
    name: "node_Constant_1309"
    op_type: "Constant"
    attribute {
      name: "value_ints"
      ints: 1
      type: INTS
    }
  }
  node {
    output: "val_834"
    name: "node_Constant_1361"
    op_type: "Constant"
    attribute {
      name: "value_ints"
      ints: 1
      type: INTS
    }
  }
  node {
    output: "val_896"
    name: "node_Constant_1489"
    op_type: "Constant"
    attribute {
      name: "value_ints"
      ints: 1
      type: INTS
    }
  }
  node {
    output: "val_926"
    name: "node_Constant_1523"
    op_type: "Constant"
    attribute {
      name: "value_ints"
      ints: 1
      type: INTS
    }
  }
  node {
    output: "val_966"
    name: "node_Constant_1575"
    op_type: "Constant"
    attribute {
      name: "value_ints"
      ints: 1
      type: INTS
    }
  }
  node {
    output: "val_1028"
    name: "node_Constant_1703"
    op_type: "Constant"
    attribute {
      name: "value_ints"
      ints: 1
      type: INTS
    }
  }
  node {
    output: "val_1058"
    name: "node_Constant_1737"
    op_type: "Constant"
    attribute {
      name: "value_ints"
      ints: 1
      type: INTS
    }
  }
  node {
    output: "val_1098"
    name: "node_Constant_1789"
    op_type: "Constant"
    attribute {
      name: "value_ints"
      ints: 1
      type: INTS
    }
  }
  node {
    output: "val_1160"
    name: "node_Constant_1917"
    op_type: "Constant"
    attribute {
      name: "value_ints"
      ints: 1
      type: INTS
    }
  }
  node {
    output: "val_1190"
    name: "node_Constant_1951"
    op_type: "Constant"
    attribute {
      name: "value_ints"
      ints: 1
      type: INTS
    }
  }
  node {
    output: "val_1230"
    name: "node_Constant_2003"
    op_type: "Constant"
    attribute {
      name: "value_ints"
      ints: 1
      type: INTS
    }
  }
  node {
    output: "val_1292"
    name: "node_Constant_2131"
    op_type: "Constant"
    attribute {
      name: "value_ints"
      ints: 1
      type: INTS
    }
  }
  node {
    output: "val_1322"
    name: "node_Constant_2165"
    op_type: "Constant"
    attribute {
      name: "value_ints"
      ints: 1
      type: INTS
    }
  }
  node {
    output: "val_1362"
    name: "node_Constant_2217"
    op_type: "Constant"
    attribute {
      name: "value_ints"
      ints: 1
      type: INTS
    }
  }
  node {
    output: "val_1424"
    name: "node_Constant_2345"
    op_type: "Constant"
    attribute {
      name: "value_ints"
      ints: 1
      type: INTS
    }
  }
  node {
    output: "val_1454"
    name: "node_Constant_2379"
    op_type: "Constant"
    attribute {
      name: "value_ints"
      ints: 1
      type: INTS
    }
  }
  node {
    output: "val_1494"
    name: "node_Constant_2431"
    op_type: "Constant"
    attribute {
      name: "value_ints"
      ints: 1
      type: INTS
    }
  }
  node {
    output: "val_1556"
    name: "node_Constant_2559"
    op_type: "Constant"
    attribute {
      name: "value_ints"
      ints: 1
      type: INTS
    }
  }
  node {
    output: "val_1586"
    name: "node_Constant_2593"
    op_type: "Constant"
    attribute {
      name: "value_ints"
      ints: 1
      type: INTS
    }
  }
  node {
    output: "val_1626"
    name: "node_Constant_2645"
    op_type: "Constant"
    attribute {
      name: "value_ints"
      ints: 1
      type: INTS
    }
  }
  node {
    output: "val_1688"
    name: "node_Constant_2773"
    op_type: "Constant"
    attribute {
      name: "value_ints"
      ints: 1
      type: INTS
    }
  }
  node {
    output: "val_1718"
    name: "node_Constant_2807"
    op_type: "Constant"
    attribute {
      name: "value_ints"
      ints: 1
      type: INTS
    }
  }
  node {
    output: "val_1758"
    name: "node_Constant_2859"
    op_type: "Constant"
    attribute {
      name: "value_ints"
      ints: 1
      type: INTS
    }
  }
  node {
    output: "val_1820"
    name: "node_Constant_2987"
    op_type: "Constant"
    attribute {
      name: "value_ints"
      ints: 1
      type: INTS
    }
  }
  node {
    output: "val_1850"
    name: "node_Constant_3021"
    op_type: "Constant"
    attribute {
      name: "value_ints"
      ints: 1
      type: INTS
    }
  }
  node {
    output: "val_1890"
    name: "node_Constant_3073"
    op_type: "Constant"
    attribute {
      name: "value_ints"
      ints: 1
      type: INTS
    }
  }
  node {
    output: "val_1952"
    name: "node_Constant_3201"
    op_type: "Constant"
    attribute {
      name: "value_ints"
      ints: 1
      type: INTS
    }
  }
  node {
    output: "val_1982"
    name: "node_Constant_3235"
    op_type: "Constant"
    attribute {
      name: "value_ints"
      ints: 1
      type: INTS
    }
  }
  node {
    output: "val_2022"
    name: "node_Constant_3287"
    op_type: "Constant"
    attribute {
      name: "value_ints"
      ints: 1
      type: INTS
    }
  }
  node {
    output: "val_2084"
    name: "node_Constant_3415"
    op_type: "Constant"
    attribute {
      name: "value_ints"
      ints: 1
      type: INTS
    }
  }
  node {
    output: "val_2114"
    name: "node_Constant_3449"
    op_type: "Constant"
    attribute {
      name: "value_ints"
      ints: 1
      type: INTS
    }
  }
  node {
    output: "val_2154"
    name: "node_Constant_3501"
    op_type: "Constant"
    attribute {
      name: "value_ints"
      ints: 1
      type: INTS
    }
  }
  node {
    output: "val_2216"
    name: "node_Constant_3629"
    op_type: "Constant"
    attribute {
      name: "value_ints"
      ints: 1
      type: INTS
    }
  }
  node {
    output: "val_2246"
    name: "node_Constant_3663"
    op_type: "Constant"
    attribute {
      name: "value_ints"
      ints: 1
      type: INTS
    }
  }
  node {
    output: "val_2286"
    name: "node_Constant_3715"
    op_type: "Constant"
    attribute {
      name: "value_ints"
      ints: 1
      type: INTS
    }
  }
  node {
    output: "val_2348"
    name: "node_Constant_3843"
    op_type: "Constant"
    attribute {
      name: "value_ints"
      ints: 1
      type: INTS
    }
  }
  node {
    output: "val_2378"
    name: "node_Constant_3877"
    op_type: "Constant"
    attribute {
      name: "value_ints"
      ints: 1
      type: INTS
    }
  }
  node {
    output: "val_2418"
    name: "node_Constant_3929"
    op_type: "Constant"
    attribute {
      name: "value_ints"
      ints: 1
      type: INTS
    }
  }
  node {
    output: "val_2480"
    name: "node_Constant_4057"
    op_type: "Constant"
    attribute {
      name: "value_ints"
      ints: 1
      type: INTS
    }
  }
  node {
    output: "val_2510"
    name: "node_Constant_4091"
    op_type: "Constant"
    attribute {
      name: "value_ints"
      ints: 1
      type: INTS
    }
  }
  node {
    output: "val_2550"
    name: "node_Constant_4143"
    op_type: "Constant"
    attribute {
      name: "value_ints"
      ints: 1
      type: INTS
    }
  }
  node {
    output: "val_2612"
    name: "node_Constant_4271"
    op_type: "Constant"
    attribute {
      name: "value_ints"
      ints: 1
      type: INTS
    }
  }
  node {
    output: "val_2642"
    name: "node_Constant_4305"
    op_type: "Constant"
    attribute {
      name: "value_ints"
      ints: 1
      type: INTS
    }
  }
  node {
    output: "val_2682"
    name: "node_Constant_4357"
    op_type: "Constant"
    attribute {
      name: "value_ints"
      ints: 1
      type: INTS
    }
  }
  node {
    output: "val_2744"
    name: "node_Constant_4485"
    op_type: "Constant"
    attribute {
      name: "value_ints"
      ints: 1
      type: INTS
    }
  }
  node {
    output: "val_2774"
    name: "node_Constant_4519"
    op_type: "Constant"
    attribute {
      name: "value_ints"
      ints: 1
      type: INTS
    }
  }
  node {
    output: "val_2814"
    name: "node_Constant_4571"
    op_type: "Constant"
    attribute {
      name: "value_ints"
      ints: 1
      type: INTS
    }
  }
  node {
    output: "val_2876"
    name: "node_Constant_4699"
    op_type: "Constant"
    attribute {
      name: "value_ints"
      ints: 1
      type: INTS
    }
  }
  node {
    output: "val_2906"
    name: "node_Constant_4733"
    op_type: "Constant"
    attribute {
      name: "value_ints"
      ints: 1
      type: INTS
    }
  }
  node {
    output: "val_2946"
    name: "node_Constant_4785"
    op_type: "Constant"
    attribute {
      name: "value_ints"
      ints: 1
      type: INTS
    }
  }
  node {
    output: "val_3008"
    name: "node_Constant_4913"
    op_type: "Constant"
    attribute {
      name: "value_ints"
      ints: 1
      type: INTS
    }
  }
  node {
    output: "val_3038"
    name: "node_Constant_4947"
    op_type: "Constant"
    attribute {
      name: "value_ints"
      ints: 1
      type: INTS
    }
  }
  node {
    output: "val_3078"
    name: "node_Constant_4999"
    op_type: "Constant"
    attribute {
      name: "value_ints"
      ints: 1
      type: INTS
    }
  }
  node {
    output: "val_3140"
    name: "node_Constant_5127"
    op_type: "Constant"
    attribute {
      name: "value_ints"
      ints: 1
      type: INTS
    }
  }
  node {
    output: "val_3170"
    name: "node_Constant_5161"
    op_type: "Constant"
    attribute {
      name: "value_ints"
      ints: 1
      type: INTS
    }
  }
  node {
    output: "val_3210"
    name: "node_Constant_5213"
    op_type: "Constant"
    attribute {
      name: "value_ints"
      ints: 1
      type: INTS
    }
  }
  node {
    output: "val_3272"
    name: "node_Constant_5341"
    op_type: "Constant"
    attribute {
      name: "value_ints"
      ints: 1
      type: INTS
    }
  }
  node {
    output: "val_3302"
    name: "node_Constant_5375"
    op_type: "Constant"
    attribute {
      name: "value_ints"
      ints: 1
      type: INTS
    }
  }
  node {
    output: "val_3342"
    name: "node_Constant_5427"
    op_type: "Constant"
    attribute {
      name: "value_ints"
      ints: 1
      type: INTS
    }
  }
  node {
    output: "val_3404"
    name: "node_Constant_5555"
    op_type: "Constant"
    attribute {
      name: "value_ints"
      ints: 1
      type: INTS
    }
  }
  node {
    output: "val_3434"
    name: "node_Constant_5589"
    op_type: "Constant"
    attribute {
      name: "value_ints"
      ints: 1
      type: INTS
    }
  }
  node {
    output: "val_3474"
    name: "node_Constant_5641"
    op_type: "Constant"
    attribute {
      name: "value_ints"
      ints: 1
      type: INTS
    }
  }
  node {
    input: "audio_attention_mask"
    output: "convert_element_type_default"
    name: "node_Cast_132"
    op_type: "Cast"
    attribute {
      name: "to"
      i: 7
      type: INT
    }
  }
  node {
    input: "audio_embeds"
    output: "val_0"
    name: "node_Shape_0"
    op_type: "Shape"
    attribute {
      name: "end"
      i: 1
      type: INT
    }
    attribute {
      name: "start"
      i: 0
      type: INT
    }
  }
  node {
    input: "audio_embeds"
    output: "val_1"
    name: "node_Shape_2"
    op_type: "Shape"
    attribute {
      name: "end"
      i: 2
      type: INT
    }
    attribute {
      name: "start"
      i: 1
      type: INT
    }
  }
  node {
    input: "audio_projection_mode"
    input: "_to_copy_40"
    output: "eq_4297"
    name: "node_Equal_5697"
    op_type: "Equal"
  }
  node {
    input: "audio_sizes"
    input: "dim_0_20"
    output: "unsqueeze_19"
    name: "n2_32"
    op_type: "Unsqueeze"
  }
  node {
    input: "audio_embeds"
    input: "encoder.encoder_embedding.global_mean"
    output: "sub"
    name: "node_Sub_4"
    op_type: "Sub"
  }
  node {
    input: "convert_element_type_default"
    input: "val_61"
    output: "sum_1"
    name: "node_ReduceSum_137"
    op_type: "ReduceSum"
    attribute {
      name: "keepdims"
      i: 0
      type: INT
    }
    attribute {
      name: "noop_with_empty_axes"
      i: 0
      type: INT
    }
  }
  node {
    input: "val_0"
    output: "sym_size_int_473"
    name: "node_Squeeze_1"
    op_type: "Squeeze"
  }
  node {
    input: "val_1"
    output: "sym_size_int_474"
    name: "node_Squeeze_3"
    op_type: "Squeeze"
  }
  node {
    input: "eq_4297"
    output: "getitem_96"
    name: "node_If_5698"
    op_type: "If"
    attribute {
      name: "else_branch"
      g {
        node {
          input: "view_104"
          input: "audio_projection.vision.0.weight_Q4"
          input: "audio_projection.vision.0.weight_scales"
          output: "val_1_3"
          name: "node_MatMul_1_2_Q4"
          op_type: "MatMulNBits"
          attribute {
            name: "K"
            i: 1024
            type: INT
          }
          attribute {
            name: "N"
            i: 3072
            type: INT
          }
          attribute {
            name: "bits"
            i: 4
            type: INT
          }
          attribute {
            name: "block_size"
            i: 32
            type: INT
          }
          domain: "com.microsoft"
        }
        node {
          input: "val_1_3"
          input: "audio_projection.vision.0.bias"
          output: "gelu_2"
          name: "Gelu_AddBias_1"
          op_type: "BiasGelu"
          domain: "com.microsoft"
        }
        node {
          input: "gelu_2"
          input: "audio_projection.vision.2.weight_Q4"
          input: "audio_projection.vision.2.weight_scales"
          output: "val_3_3"
          name: "node_MatMul_5_2_Q4"
          op_type: "MatMulNBits"
          attribute {
            name: "K"
            i: 3072
            type: INT
          }
          attribute {
            name: "N"
            i: 3072
            type: INT
          }
          attribute {
            name: "bits"
            i: 4
            type: INT
          }
          attribute {
            name: "block_size"
            i: 32
            type: INT
          }
          domain: "com.microsoft"
        }
        node {
          input: "val_3_3"
          input: "audio_projection.vision.2.bias"
          output: "linear_1_false_graph_0"
          name: "node_Add_6_3"
          op_type: "Add"
        }
        name: "false_graph_0"
        output {
          name: "linear_1_false_graph_0"
          type {
            tensor_type {
              elem_type: 10
              shape {
                dim {
                  dim_param: "s0"
                }
                dim {
                  dim_param: "(((s1 - 1)//8)) + 1"
                }
                dim {
                  dim_value: 3072
                }
              }
            }
          }
        }
        value_info {
          name: "val_1_3"
          type {
            tensor_type {
              elem_type: 10
              shape {
                dim {
                  dim_param: "s0"
                }
                dim {
                  dim_param: "(((s1 - 1)//8)) + 1"
                }
                dim {
                  dim_value: 3072
                }
              }
            }
          }
        }
        value_info {
          name: "linear_194"
          type {
            tensor_type {
              elem_type: 10
              shape {
                dim {
                  dim_param: "s0"
                }
                dim {
                  dim_param: "(((s1 - 1)//8)) + 1"
                }
                dim {
                  dim_value: 3072
                }
              }
            }
          }
        }
        value_info {
          name: "const_cast_2"
          type {
            tensor_type {
              elem_type: 10
              shape {
              }
            }
          }
        }
        value_info {
          name: "inner_2"
          type {
            tensor_type {
              elem_type: 10
              shape {
                dim {
                  dim_param: "s0"
                }
                dim {
                  dim_param: "(((s1 - 1)//8)) + 1"
                }
                dim {
                  dim_value: 3072
                }
              }
            }
          }
        }
        value_info {
          name: "erf_2"
          type {
            tensor_type {
              elem_type: 10
              shape {
                dim {
                  dim_param: "s0"
                }
                dim {
                  dim_param: "(((s1 - 1)//8)) + 1"
                }
                dim {
                  dim_value: 3072
                }
              }
            }
          }
        }
        value_info {
          name: "int64_1_cast_3"
          type {
            tensor_type {
              elem_type: 10
              shape {
              }
            }
          }
        }
        value_info {
          name: "inner_0_2"
          type {
            tensor_type {
              elem_type: 10
              shape {
                dim {
                  dim_param: "s0"
                }
                dim {
                  dim_param: "(((s1 - 1)//8)) + 1"
                }
                dim {
                  dim_value: 3072
                }
              }
            }
          }
        }
        value_info {
          name: "inner_1_2"
          type {
            tensor_type {
              elem_type: 10
              shape {
                dim {
                  dim_param: "s0"
                }
                dim {
                  dim_param: "(((s1 - 1)//8)) + 1"
                }
                dim {
                  dim_value: 3072
                }
              }
            }
          }
        }
        value_info {
          name: "const_2_cast_2"
          type {
            tensor_type {
              elem_type: 10
              shape {
              }
            }
          }
        }
        value_info {
          name: "gelu_2"
          type {
            tensor_type {
              elem_type: 10
              shape {
                dim {
                  dim_param: "s0"
                }
                dim {
                  dim_param: "(((s1 - 1)//8)) + 1"
                }
                dim {
                  dim_value: 3072
                }
              }
            }
          }
        }
        value_info {
          name: "val_3_3"
          type {
            tensor_type {
              elem_type: 10
              shape {
                dim {
                  dim_param: "s0"
                }
                dim {
                  dim_param: "(((s1 - 1)//8)) + 1"
                }
                dim {
                  dim_value: 3072
                }
              }
            }
          }
        }
      }
      type: GRAPH
    }
    attribute {
      name: "then_branch"
      g {
        node {
          input: "view_104"
          input: "audio_projection.speech.0.weight_Q4"
          input: "audio_projection.speech.0.weight_scales"
          output: "val_1_2"
          name: "node_MatMul_1_Q4"
          op_type: "MatMulNBits"
          attribute {
            name: "K"
            i: 1024
            type: INT
          }
          attribute {
            name: "N"
            i: 3072
            type: INT
          }
          attribute {
            name: "bits"
            i: 4
            type: INT
          }
          attribute {
            name: "block_size"
            i: 32
            type: INT
          }
          domain: "com.microsoft"
        }
        node {
          input: "val_1_2"
          input: "audio_projection.speech.0.bias"
          output: "gelu"
          name: "Gelu_AddBias_0"
          op_type: "BiasGelu"
          domain: "com.microsoft"
        }
        node {
          input: "gelu"
          input: "audio_projection.speech.2.weight_Q4"
          input: "audio_projection.speech.2.weight_scales"
          output: "val_3_2"
          name: "node_MatMul_5_Q4"
          op_type: "MatMulNBits"
          attribute {
            name: "K"
            i: 3072
            type: INT
          }
          attribute {
            name: "N"
            i: 3072
            type: INT
          }
          attribute {
            name: "bits"
            i: 4
            type: INT
          }
          attribute {
            name: "block_size"
            i: 32
            type: INT
          }
          domain: "com.microsoft"
        }
        node {
          input: "val_3_2"
          input: "audio_projection.speech.2.bias"
          output: "linear_1_true_graph_0"
          name: "node_Add_6_2"
          op_type: "Add"
        }
        name: "true_graph_0"
        output {
          name: "linear_1_true_graph_0"
          type {
            tensor_type {
              elem_type: 10
              shape {
                dim {
                  dim_param: "s0"
                }
                dim {
                  dim_param: "(((s1 - 1)//8)) + 1"
                }
                dim {
                  dim_value: 3072
                }
              }
            }
          }
        }
        value_info {
          name: "val_1_2"
          type {
            tensor_type {
              elem_type: 10
              shape {
                dim {
                  dim_param: "s0"
                }
                dim {
                  dim_param: "(((s1 - 1)//8)) + 1"
                }
                dim {
                  dim_value: 3072
                }
              }
            }
          }
        }
        value_info {
          name: "linear_193"
          type {
            tensor_type {
              elem_type: 10
              shape {
                dim {
                  dim_param: "s0"
                }
                dim {
                  dim_param: "(((s1 - 1)//8)) + 1"
                }
                dim {
                  dim_value: 3072
                }
              }
            }
          }
        }
        value_info {
          name: "const_cast"
          type {
            tensor_type {
              elem_type: 10
              shape {
              }
            }
          }
        }
        value_info {
          name: "inner"
          type {
            tensor_type {
              elem_type: 10
              shape {
                dim {
                  dim_param: "s0"
                }
                dim {
                  dim_param: "(((s1 - 1)//8)) + 1"
                }
                dim {
                  dim_value: 3072
                }
              }
            }
          }
        }
        value_info {
          name: "erf"
          type {
            tensor_type {
              elem_type: 10
              shape {
                dim {
                  dim_param: "s0"
                }
                dim {
                  dim_param: "(((s1 - 1)//8)) + 1"
                }
                dim {
                  dim_value: 3072
                }
              }
            }
          }
        }
        value_info {
          name: "int64_1_cast_2"
          type {
            tensor_type {
              elem_type: 10
              shape {
              }
            }
          }
        }
        value_info {
          name: "inner_0"
          type {
            tensor_type {
              elem_type: 10
              shape {
                dim {
                  dim_param: "s0"
                }
                dim {
                  dim_param: "(((s1 - 1)//8)) + 1"
                }
                dim {
                  dim_value: 3072
                }
              }
            }
          }
        }
        value_info {
          name: "inner_1"
          type {
            tensor_type {
              elem_type: 10
              shape {
                dim {
                  dim_param: "s0"
                }
                dim {
                  dim_param: "(((s1 - 1)//8)) + 1"
                }
                dim {
                  dim_value: 3072
                }
              }
            }
          }
        }
        value_info {
          name: "const_2_cast"
          type {
            tensor_type {
              elem_type: 10
              shape {
              }
            }
          }
        }
        value_info {
          name: "gelu"
          type {
            tensor_type {
              elem_type: 10
              shape {
                dim {
                  dim_param: "s0"
                }
                dim {
                  dim_param: "(((s1 - 1)//8)) + 1"
                }
                dim {
                  dim_value: 3072
                }
              }
            }
          }
        }
        value_info {
          name: "val_3_2"
          type {
            tensor_type {
              elem_type: 10
              shape {
                dim {
                  dim_param: "s0"
                }
                dim {
                  dim_param: "(((s1 - 1)//8)) + 1"
                }
                dim {
                  dim_value: 3072
                }
              }
            }
          }
        }
      }
      type: GRAPH
    }
  }
  node {
    input: "sub"
    input: "encoder.encoder_embedding.global_invstd"
    output: "mul_7"
    name: "node_Mul_24"
    op_type: "Mul"
  }
  node {
    input: "sum_1"
    output: "_to_copy_3"
    name: "node_Cast_138"
    op_type: "Cast"
    attribute {
      name: "to"
      i: 1
      type: INT
    }
  }
  node {
    input: "sym_size_int_473"
    input: "val_46"
    output: "val_47"
    name: "node_Reshape_105"
    op_type: "Reshape"
    attribute {
      name: "allowzero"
      i: 0
      type: INT
    }
  }
  node {
    input: "sym_size_int_473"
    input: "val_49"
    output: "val_50"
    name: "node_Reshape_122"
    op_type: "Reshape"
    attribute {
      name: "allowzero"
      i: 0
      type: INT
    }
  }
  node {
    input: "sym_size_int_473"
    input: "val_64"
    output: "val_65"
    name: "node_Reshape_146"
    op_type: "Reshape"
    attribute {
      name: "allowzero"
      i: 0
      type: INT
    }
  }
  node {
    input: "sym_size_int_473"
    input: "val_4"
    output: "val_67"
    name: "node_Equal_151"
    op_type: "Equal"
  }
  node {
    input: "sym_size_int_473"
    input: "val_4"
    output: "gt_2"
    name: "node_Greater_189"
    op_type: "Greater"
  }
  node {
    input: "sym_size_int_473"
    input: "val_89"
    output: "val_90"
    name: "node_Reshape_191"
    op_type: "Reshape"
    attribute {
      name: "allowzero"
      i: 0
      type: INT
    }
  }
  node {
    input: "sym_size_int_473"
    input: "val_98"
    output: "val_99"
    name: "node_Reshape_204"
    op_type: "Reshape"
    attribute {
      name: "allowzero"
      i: 0
      type: INT
    }
  }
  node {
    input: "sym_size_int_473"
    input: "val_105"
    output: "val_106"
    name: "node_Reshape_223"
    op_type: "Reshape"
    attribute {
      name: "allowzero"
      i: 0
      type: INT
    }
  }
  node {
    input: "sym_size_int_473"
    input: "val_153"
    output: "val_154"
    name: "node_Reshape_318"
    op_type: "Reshape"
    attribute {
      name: "allowzero"
      i: 0
      type: INT
    }
  }
  node {
    input: "sym_size_int_473"
    input: "val_160"
    output: "val_161"
    name: "node_Reshape_329"
    op_type: "Reshape"
    attribute {
      name: "allowzero"
      i: 0
      type: INT
    }
  }
  node {
    input: "sym_size_int_473"
    input: "val_4"
    output: "eq_240"
    name: "node_Equal_337"
    op_type: "Equal"
  }
  node {
    input: "sym_size_int_473"
    input: "val_164"
    output: "val_165"
    name: "node_Reshape_346"
    op_type: "Reshape"
    attribute {
      name: "allowzero"
      i: 0
      type: INT
    }
  }
  node {
    input: "sym_size_int_473"
    input: "val_3479"
    output: "val_3480"
    name: "node_Reshape_5669"
    op_type: "Reshape"
    attribute {
      name: "allowzero"
      i: 0
      type: INT
    }
  }
  node {
    input: "sym_size_int_473"
    input: "val_3506"
    output: "val_3507"
    name: "node_Reshape_5704"
    op_type: "Reshape"
    attribute {
      name: "allowzero"
      i: 0
      type: INT
    }
  }
  node {
    input: "val_2"
    input: "sym_size_int_474"
    output: "add_8604"
    name: "node_Add_6"
    op_type: "Add"
  }
  node {
    input: "sym_size_int_474"
    output: "val_6"
    name: "node_Cast_25"
    op_type: "Cast"
    attribute {
      name: "to"
      i: 1
      type: INT
    }
  }
  node {
    input: "mul_7"
    input: "dim_0_6"
    output: "unsqueeze_5"
    name: "n2_8"
    op_type: "Unsqueeze"
  }
  node {
    input: "_to_copy_3"
    input: "val_62"
    output: "div"
    name: "n0_10"
    op_type: "Div"
  }
  node {
    input: "val_47"
    input: "val_29"
    input: "val_29"
    output: "val_48"
    name: "node_Concat_106"
    op_type: "Concat"
    attribute {
      name: "axis"
      i: 0
      type: INT
    }
  }
  node {
    input: "val_65"
    input: "val_29"
    output: "val_66"
    name: "node_Concat_147"
    op_type: "Concat"
    attribute {
      name: "axis"
      i: 0
      type: INT
    }
  }
  node {
    input: "val_67"
    output: "ne_6"
    name: "node_Not_152"
    op_type: "Not"
  }
  node {
    input: "val_154"
    input: "val_29"
    input: "val_29"
    output: "val_155"
    name: "node_Concat_319"
    op_type: "Concat"
    attribute {
      name: "axis"
      i: 0
      type: INT
    }
  }
  node {
    input: "val_161"
    input: "val_29"
    output: "val_162"
    name: "node_Concat_330"
    op_type: "Concat"
    attribute {
      name: "axis"
      i: 0
      type: INT
    }
  }
  node {
    input: "val_3480"
    input: "val_29"
    input: "val_341"
    output: "val_3481"
    name: "node_Concat_5670"
    op_type: "Concat"
    attribute {
      name: "axis"
      i: 0
      type: INT
    }
  }
  node {
    input: "val_3507"
    input: "val_29"
    output: "val_3508"
    name: "node_Concat_5705"
    op_type: "Concat"
    attribute {
      name: "axis"
      i: 0
      type: INT
    }
  }
  node {
    input: "add_8604"
    input: "val_3"
    output: "floordiv_3"
    name: "node_Div_8"
    op_type: "Div"
  }
  node {
    input: "val_6"
    input: "val_7"
    output: "truediv"
    name: "node_Div_27"
    op_type: "Div"
  }
  node {
    input: "unsqueeze_5"
    input: "encoder.embed.conv.0.weight"
    input: "encoder.embed.conv.0.bias"
    output: "conv2d"
    name: "node_Conv_111"
    op_type: "Conv"
    attribute {
      name: "auto_pad"
      s: "NOTSET"
      type: STRING
    }
    attribute {
      name: "dilations"
      ints: 1
      ints: 1
      type: INTS
    }
    attribute {
      name: "group"
      i: 1
      type: INT
    }
    attribute {
      name: "pads"
      ints: 1
      ints: 1
      ints: 1
      ints: 1
      type: INTS
    }
    attribute {
      name: "strides"
      ints: 2
      ints: 2
      type: INTS
    }
  }
  node {
    input: "div"
    output: "ceil_1"
    name: "node_Ceil_141"
    op_type: "Ceil"
  }
  node {
    input: "val_48"
    output: "size_1_2"
    name: "n1_8"
    op_type: "Abs"
  }
  node {
    input: "val_66"
    output: "size_1_3"
    name: "n1_10"
    op_type: "Abs"
  }
  node {
    input: "ne_6"
    output: "val_118"
    name: "node_Cast_240"
    op_type: "Cast"
    attribute {
      name: "to"
      i: 1
      type: INT
    }
  }
  node {
    input: "val_155"
    output: "size_1_5"
    name: "n1_24"
    op_type: "Abs"
  }
  node {
    input: "val_162"
    output: "size_1_6"
    name: "n1_25"
    op_type: "Abs"
  }
  node {
    input: "val_3508"
    output: "size_1_7"
    name: "n1_34"
    op_type: "Abs"
  }
  node {
    input: "val_4"
    input: "floordiv_3"
    output: "add_8605"
    name: "node_Add_10"
    op_type: "Add"
  }
  node {
    input: "val_4"
    input: "floordiv_3"
    output: "add_8607"
    name: "node_Add_16"
    op_type: "Add"
  }
  node {
    input: "truediv"
    output: "val_8"
    name: "node_Ceil_28"
    op_type: "Ceil"
  }
  node {
    input: "conv2d"
    output: "relu"
    name: "node_Relu_112"
    op_type: "Relu"
  }
  node {
    input: "ceil_1"
    output: "_to_copy_4"
    name: "node_Cast_142"
    op_type: "Cast"
    attribute {
      name: "to"
      i: 7
      type: INT
    }
  }
  node {
    input: "add_8605"
    input: "val_5"
    output: "mod_3"
    name: "node_Mod_12"
    op_type: "Mod"
    attribute {
      name: "fmod"
      i: 0
      type: INT
    }
  }
  node {
    input: "add_8605"
    input: "val_51"
    output: "val_52"
    name: "node_Reshape_124"
    op_type: "Reshape"
    attribute {
      name: "allowzero"
      i: 0
      type: INT
    }
  }
  node {
    input: "val_13"
    input: "add_8605"
    input: "val_63"
    output: "arange_2"
    name: "node_Range_144"
    op_type: "Range"
  }
  node {
    input: "sym_size_int_473"
    input: "add_8605"
    output: "mul_132"
    name: "node_Mul_167"
    op_type: "Mul"
  }
  node {
    input: "add_8605"
    input: "val_100"
    output: "val_101"
    name: "node_Reshape_206"
    op_type: "Reshape"
    attribute {
      name: "allowzero"
      i: 0
      type: INT
    }
  }
  node {
    input: "add_8605"
    input: "val_204"
    output: "val_209"
    name: "node_Unsqueeze_395"
    op_type: "Unsqueeze"
  }
  node {
    input: "add_8605"
    input: "val_5"
    output: "gt_7"
    name: "node_Greater_428"
    op_type: "Greater"
  }
  node {
    input: "add_8605"
    input: "val_264"
    output: "val_265"
    name: "node_Reshape_466"
    op_type: "Reshape"
    attribute {
      name: "allowzero"
      i: 0
      type: INT
    }
  }
  node {
    input: "val_271"
    input: "add_8605"
    input: "val_272"
    output: "arange_6"
    name: "node_Range_479"
    op_type: "Range"
  }
  node {
    input: "val_284"
    input: "add_8605"
    input: "val_285"
    output: "arange_7"
    name: "node_Range_495"
    op_type: "Range"
  }
  node {
    input: "val_3504"
    input: "add_8605"
    input: "val_3505"
    output: "arange_8"
    name: "node_Range_5702"
    op_type: "Range"
  }
  node {
    input: "val_8"
    output: "ceil"
    name: "node_Cast_29"
    op_type: "Cast"
    attribute {
      name: "to"
      i: 7
      type: INT
    }
  }
  node {
    input: "relu"
    input: "encoder.embed.conv.2.weight"
    input: "encoder.embed.conv.2.bias"
    output: "conv2d_1"
    name: "node_Conv_113"
    op_type: "Conv"
    attribute {
      name: "auto_pad"
      s: "NOTSET"
      type: STRING
    }
    attribute {
      name: "dilations"
      ints: 1
      ints: 1
      type: INTS
    }
    attribute {
      name: "group"
      i: 1024
      type: INT
    }
    attribute {
      name: "pads"
      ints: 1
      ints: 1
      ints: 1
      ints: 1
      type: INTS
    }
    attribute {
      name: "strides"
      ints: 2
      ints: 2
      type: INTS
    }
  }
  node {
    input: "_to_copy_4"
    input: "dim_0_7"
    output: "unsqueeze_6"
    name: "n2_10"
    op_type: "Unsqueeze"
  }
  node {
    input: "val_2"
    input: "mod_3"
    output: "mul_6474"
    name: "node_Mul_13"
    op_type: "Mul"
  }
  node {
    input: "val_50"
    input: "val_52"
    input: "val_53"
    output: "val_54"
    name: "node_Concat_126"
    op_type: "Concat"
    attribute {
      name: "axis"
      i: 0
      type: INT
    }
  }
  node {
    input: "arange_2"
    input: "size_1_3"
    output: "expand_2"
    name: "n2_9"
    op_type: "Expand"
  }
  node {
    input: "mul_132"
    input: "val_75"
    output: "val_76"
    name: "node_Reshape_169"
    op_type: "Reshape"
    attribute {
      name: "allowzero"
      i: 0
      type: INT
    }
  }
  node {
    input: "val_99"
    input: "val_59"
    input: "val_101"
    output: "val_102"
    name: "node_Concat_207"
    op_type: "Concat"
    attribute {
      name: "axis"
      i: 0
      type: INT
    }
  }
  node {
    input: "gt_7"
    output: "val_238"
    name: "node_Cast_429"
    op_type: "Cast"
    attribute {
      name: "to"
      i: 1
      type: INT
    }
  }
  node {
    input: "arange_6"
    input: "dim_0_17"
    output: "unsqueeze_16"
    name: "n2_26"
    op_type: "Unsqueeze"
  }
  node {
    input: "arange_7"
    input: "dim_0_18"
    output: "unsqueeze_17"
    name: "n2_27"
    op_type: "Unsqueeze"
  }
  node {
    input: "arange_8"
    input: "size_1_7"
    output: "expand_6"
    name: "n2_31"
    op_type: "Expand"
  }
  node {
    input: "ceil"
    input: "val_9"
    output: "val_10"
    name: "node_Unsqueeze_37"
    op_type: "Unsqueeze"
  }
  node {
    input: "val_13"
    input: "ceil"
    input: "val_12"
    output: "arange"
    name: "node_Range_43"
    op_type: "Range"
  }
  node {
    input: "val_13"
    input: "ceil"
    input: "val_26"
    output: "arange_1"
    name: "node_Range_66"
    op_type: "Range"
  }
  node {
    input: "ceil"
    input: "val_27"
    output: "val_28"
    name: "node_Reshape_69"
    op_type: "Reshape"
    attribute {
      name: "allowzero"
      i: 0
      type: INT
    }
  }
  node {
    input: "sym_size_int_473"
    input: "ceil"
    output: "mul_137"
    name: "node_Mul_174"
    op_type: "Mul"
  }
  node {
    input: "ceil"
    input: "val_91"
    output: "val_92"
    name: "node_Reshape_193"
    op_type: "Reshape"
    attribute {
      name: "allowzero"
      i: 0
      type: INT
    }
  }
  node {
    input: "ceil"
    input: "val_93"
    output: "val_94"
    name: "node_Reshape_195"
    op_type: "Reshape"
    attribute {
      name: "allowzero"
      i: 0
      type: INT
    }
  }
  node {
    input: "ceil"
    input: "val_198"
    output: "val_199"
    name: "node_Reshape_384"
    op_type: "Reshape"
    attribute {
      name: "allowzero"
      i: 0
      type: INT
    }
  }
  node {
    input: "ceil"
    input: "val_216"
    output: "val_221"
    name: "node_Unsqueeze_408"
    op_type: "Unsqueeze"
  }
  node {
    input: "ceil"
    input: "val_254"
    output: "val_255"
    name: "node_Reshape_455"
    op_type: "Reshape"
    attribute {
      name: "allowzero"
      i: 0
      type: INT
    }
  }
  node {
    input: "conv2d_1"
    input: "encoder.embed.conv.3.weight"
    input: "encoder.embed.conv.3.bias"
    output: "conv2d_2"
    name: "node_Conv_114"
    op_type: "Conv"
    attribute {
      name: "auto_pad"
      s: "NOTSET"
      type: STRING
    }
    attribute {
      name: "dilations"
      ints: 1
      ints: 1
      type: INTS
    }
    attribute {
      name: "group"
      i: 1
      type: INT
    }
    attribute {
      name: "pads"
      ints: 0
      ints: 0
      ints: 0
      ints: 0
      type: INTS
    }
    attribute {
      name: "strides"
      ints: 1
      ints: 1
      type: INTS
    }
  }
  node {
    input: "val_5"
    input: "mul_6474"
    output: "add_8606"
    name: "node_Add_14"
    op_type: "Add"
  }
  node {
    input: "expand_2"
    input: "unsqueeze_6"
    output: "lt_6"
    name: "node_Less_150"
    op_type: "Less"
  }
  node {
    input: "unsqueeze_17"
    input: "unsqueeze_16"
    output: "sub_312"
    name: "node_Sub_508"
    op_type: "Sub"
  }
  node {
    input: "expand_6"
    input: "unsqueeze_19"
    output: "lt_24"
    name: "node_Less_5709"
    op_type: "Less"
  }
  node {
    input: "_to_copy"
    input: "val_10"
    output: "cat_1"
    name: "node_Concat_39"
    op_type: "Concat"
    attribute {
      name: "axis"
      i: 0
      type: INT
    }
  }
  node {
    input: "arange"
    input: "dim_0"
    output: "unsqueeze"
    name: "n2"
    op_type: "Unsqueeze"
  }
  node {
    input: "arange_1"
    input: "dim_0_2"
    output: "unsqueeze_1"
    name: "n2_2"
    op_type: "Unsqueeze"
  }
  node {
    input: "val_28"
    input: "val_29"
    output: "val_30"
    name: "node_Concat_71"
    op_type: "Concat"
    attribute {
      name: "axis"
      i: 0
      type: INT
    }
  }
  node {
    input: "mul_137"
    input: "ceil"
    output: "mul_138"
    name: "node_Mul_175"
    op_type: "Mul"
  }
  node {
    input: "val_90"
    input: "val_92"
    input: "val_94"
    output: "val_95"
    name: "node_Concat_196"
    op_type: "Concat"
    attribute {
      name: "axis"
      i: 0
      type: INT
    }
  }
  node {
    input: "conv2d_2"
    output: "relu_1"
    name: "node_Relu_115"
    op_type: "Relu"
  }
  node {
    input: "add_8606"
    input: "val_5"
    output: "mod_4"
    name: "node_Mod_15"
    op_type: "Mod"
    attribute {
      name: "fmod"
      i: 0
      type: INT
    }
  }
  node {
    input: "lt_6"
    output: "val_68"
    name: "node_Shape_153"
    op_type: "Shape"
    attribute {
      name: "start"
      i: 0
      type: INT
    }
  }
  node {
    input: "sub_312"
    input: "val_296"
    output: "lt_21"
    name: "node_Less_510"
    op_type: "Less"
  }
  node {
    input: "lt_24"
    output: "val_3509"
    name: "node_NonZero_5710"
    op_type: "NonZero"
  }
  node {
    input: "cat_1"
    output: "val_39"
    name: "node_Transpose_92"
    op_type: "Transpose"
    attribute {
      name: "perm"
      ints: 0
      type: INTS
    }
  }
  node {
    input: "unsqueeze"
    input: "cat_1"
    output: "lt"
    name: "node_Less_45"
    op_type: "Less"
  }
  node {
    input: "unsqueeze"
    input: "cat"
    output: "ge"
    name: "node_GreaterOrEqual_46"
    op_type: "GreaterOrEqual"
  }
  node {
    input: "val_30"
    output: "size_1"
    name: "n1_4"
    op_type: "Abs"
  }
  node {
    input: "mul_138"
    input: "val_85"
    output: "val_86"
    name: "node_Reshape_184"
    op_type: "Reshape"
    attribute {
      name: "allowzero"
      i: 0
      type: INT
    }
  }
  node {
    input: "mul_138"
    input: "val_13"
    output: "eq_134"
    name: "node_Equal_202"
    op_type: "Equal"
  }
  node {
    input: "relu_1"
    input: "encoder.embed.conv.5.weight"
    input: "encoder.embed.conv.5.bias"
    output: "conv2d_3"
    name: "node_Conv_116"
    op_type: "Conv"
    attribute {
      name: "auto_pad"
      s: "NOTSET"
      type: STRING
    }
    attribute {
      name: "dilations"
      ints: 1
      ints: 1
      type: INTS
    }
    attribute {
      name: "group"
      i: 1024
      type: INT
    }
    attribute {
      name: "pads"
      ints: 1
      ints: 1
      ints: 1
      ints: 1
      type: INTS
    }
    attribute {
      name: "strides"
      ints: 2
      ints: 2
      type: INTS
    }
  }
  node {
    input: "add_8607"
    input: "mod_4"
    output: "add_8608"
    name: "node_Add_17"
    op_type: "Add"
  }
  node {
    input: "mod_4"
    input: "val_107"
    output: "val_108"
    name: "node_Reshape_225"
    op_type: "Reshape"
    attribute {
      name: "allowzero"
      i: 0
      type: INT
    }
  }
  node {
    input: "ne_6"
    input: "val_68"
    output: "full_like"
    name: "node_Expand_154"
    op_type: "Expand"
  }
  node {
    input: "lt_21"
    input: "val_297"
    input: "sub_312"
    output: "masked_fill"
    name: "node_Where_512"
    op_type: "Where"
  }
  node {
    input: "val_3509"
    output: "val_3510"
    name: "node_Transpose_5711"
    op_type: "Transpose"
    attribute {
      name: "perm"
      ints: 1
      ints: 0
      type: INTS
    }
  }
  node {
    input: "lt"
    input: "ge"
    output: "bitwise_and"
    name: "node_And_47"
    op_type: "And"
  }
  node {
    input: "unsqueeze_1"
    input: "size_1"
    output: "expand"
    name: "n2_3"
    op_type: "Expand"
  }
  node {
    input: "conv2d_3"
    input: "encoder.embed.conv.6.weight"
    input: "encoder.embed.conv.6.bias"
    output: "conv2d_4"
    name: "node_Conv_117"
    op_type: "Conv"
    attribute {
      name: "auto_pad"
      s: "NOTSET"
      type: STRING
    }
    attribute {
      name: "dilations"
      ints: 1
      ints: 1
      type: INTS
    }
    attribute {
      name: "group"
      i: 1
      type: INT
    }
    attribute {
      name: "pads"
      ints: 0
      ints: 0
      ints: 0
      ints: 0
      type: INTS
    }
    attribute {
      name: "strides"
      ints: 1
      ints: 1
      type: INTS
    }
  }
  node {
    input: "add_8608"
    input: "val_5"
    output: "floordiv_4"
    name: "node_Div_19"
    op_type: "Div"
  }
  node {
    input: "add_8608"
    input: "val_120"
    output: "val_121"
    name: "node_Unsqueeze_253"
    op_type: "Unsqueeze"
  }
  node {
    input: "val_13"
    input: "add_8608"
    input: "val_122"
    output: "arange_3"
    name: "node_Range_257"
    op_type: "Range"
  }
  node {
    input: "val_13"
    input: "add_8608"
    input: "val_135"
    output: "arange_4"
    name: "node_Range_281"
    op_type: "Range"
  }
  node {
    input: "add_8608"
    input: "val_136"
    output: "val_137"
    name: "node_Reshape_284"
    op_type: "Reshape"
    attribute {
      name: "allowzero"
      i: 0
      type: INT
    }
  }
  node {
    input: "val_13"
    input: "add_8608"
    input: "val_159"
    output: "arange_5"
    name: "node_Range_327"
    op_type: "Range"
  }
  node {
    input: "add_8608"
    input: "val_166"
    output: "val_167"
    name: "node_Reshape_348"
    op_type: "Reshape"
    attribute {
      name: "allowzero"
      i: 0
      type: INT
    }
  }
  node {
    input: "add_8608"
    input: "val_168"
    output: "val_169"
    name: "node_Reshape_350"
    op_type: "Reshape"
    attribute {
      name: "allowzero"
      i: 0
      type: INT
    }
  }
  node {
    input: "val_106"
    input: "val_108"
    output: "val_109"
    name: "node_Concat_226"
    op_type: "Concat"
    attribute {
      name: "axis"
      i: 0
      type: INT
    }
  }
  node {
    input: "lt_6"
    input: "full_like"
    output: "mul_127"
    name: "node_And_156"
    op_type: "And"
  }
  node {
    input: "masked_fill"
    input: "val_298"
    output: "gt_8"
    name: "node_Greater_514"
    op_type: "Greater"
  }
  node {
    input: "getitem_96"
    input: "val_3510"
    output: "index_6"
    name: "node_GatherND_5712"
    op_type: "GatherND"
    attribute {
      name: "batch_dims"
      i: 0
      type: INT
    }
  }
  node {
    input: "bitwise_and"
    output: "tmp"
    name: "n0_2"
    op_type: "NonZero"
  }
  node {
    input: "conv2d_4"
    output: "relu_2"
    name: "node_Relu_118"
    op_type: "Relu"
  }
  node {
    input: "sym_size_int_473"
    input: "floordiv_4"
    output: "mul_179"
    name: "node_Mul_220"
    op_type: "Mul"
  }
  node {
    input: "_to_copy_11"
    input: "val_121"
    output: "cat_5"
    name: "node_Concat_255"
    op_type: "Concat"
    attribute {
      name: "axis"
      i: 0
      type: INT
    }
  }
  node {
    input: "arange_3"
    input: "dim_0_9"
    output: "unsqueeze_8"
    name: "n2_15"
    op_type: "Unsqueeze"
  }
  node {
    input: "arange_4"
    input: "dim_0_10"
    output: "unsqueeze_9"
    name: "n2_16"
    op_type: "Unsqueeze"
  }
  node {
    input: "val_137"
    input: "val_29"
    output: "val_138"
    name: "node_Concat_285"
    op_type: "Concat"
    attribute {
      name: "axis"
      i: 0
      type: INT
    }
  }
  node {
    input: "arange_5"
    input: "size_1_6"
    output: "expand_5"
    name: "n2_22"
    op_type: "Expand"
  }
  node {
    input: "val_165"
    input: "val_167"
    input: "val_169"
    output: "val_170"
    name: "node_Concat_351"
    op_type: "Concat"
    attribute {
      name: "axis"
      i: 0
      type: INT
    }
  }
  node {
    input: "val_112"
    input: "val_109"
    output: "zeros_3"
    name: "node_Expand_230"
    op_type: "Expand"
  }
  node {
    input: "mul_127"
    input: "dim_0_8"
    output: "unsqueeze_7"
    name: "n2_11"
    op_type: "Unsqueeze"
  }
  node {
    input: "gt_8"
    input: "val_299"
    input: "masked_fill"
    output: "masked_fill_1"
    name: "node_Where_516"
    op_type: "Where"
  }
  node {
    input: "index_6"
    input: "val_3513"
    output: "audio_features"
    name: "node_Reshape_5718"
    op_type: "Reshape"
    attribute {
      name: "allowzero"
      i: 0
      type: INT
    }
  }
  node {
    input: "tmp"
    output: "nonzero"
    name: "n1_2"
    op_type: "Transpose"
    attribute {
      name: "perm"
      ints: 1
      ints: 0
      type: INTS
    }
  }
  node {
    input: "relu_2"
    output: "transpose"
    name: "node_Transpose_119"
    op_type: "Transpose"
    attribute {
      name: "perm"
      ints: 0
      ints: 2
      ints: 1
      ints: 3
      type: INTS
    }
  }
  node {
    input: "mul_179"
    input: "val_113"
    output: "val_114"
    name: "node_Reshape_235"
    op_type: "Reshape"
    attribute {
      name: "allowzero"
      i: 0
      type: INT
    }
  }
  node {
    input: "cat_5"
    output: "val_146"
    name: "node_Transpose_305"
    op_type: "Transpose"
    attribute {
      name: "perm"
      ints: 0
      type: INTS
    }
  }
  node {
    input: "unsqueeze_8"
    input: "cat_5"
    output: "lt_7"
    name: "node_Less_259"
    op_type: "Less"
  }
  node {
    input: "unsqueeze_8"
    input: "cat_4"
    output: "ge_15"
    name: "node_GreaterOrEqual_260"
    op_type: "GreaterOrEqual"
  }
  node {
    input: "val_138"
    output: "size_1_4"
    name: "n1_20"
    op_type: "Abs"
  }
  node {
    input: "expand_5"
    output: "convert_element_type_default_3"
    name: "node_Cast_333"
    op_type: "Cast"
    attribute {
      name: "to"
      i: 1
      type: INT
    }
  }
  node {
    input: "val_173"
    input: "val_170"
    output: "zeros_4"
    name: "node_Expand_355"
    op_type: "Expand"
  }
  node {
    input: "unsqueeze_7"
    input: "val_76"
    output: "view"
    name: "node_Reshape_172"
    op_type: "Reshape"
    attribute {
      name: "allowzero"
      i: 0
      type: INT
    }
  }
  node {
    input: "unsqueeze_7"
    output: "shape"
    name: "n4_2_n0_17"
    op_type: "Shape"
  }
  node {
    input: "masked_fill_1"
    input: "val_5"
    output: "add_563"
    name: "node_Add_517"
    op_type: "Add"
  }
  node {
    input: "nonzero"
    input: "val_4"
    output: "select"
    name: "node_Gather_64"
    op_type: "Gather"
    attribute {
      name: "axis"
      i: 1
      type: INT
    }
  }
  node {
    input: "transpose"
    input: "val_54"
    output: "_unsafe_view"
    name: "node_Reshape_128"
    op_type: "Reshape"
    attribute {
      name: "allowzero"
      i: 0
      type: INT
    }
  }
  node {
    input: "val_114"
    input: "val_115"
    output: "val_116"
    name: "node_Concat_237"
    op_type: "Concat"
    attribute {
      name: "axis"
      i: 0
      type: INT
    }
  }
  node {
    input: "lt_7"
    input: "ge_15"
    output: "bitwise_and_3"
    name: "node_And_261"
    op_type: "And"
  }
  node {
    input: "unsqueeze_9"
    input: "size_1_4"
    output: "expand_3"
    name: "n2_17"
    op_type: "Expand"
  }
  node {
    input: "zeros_4"
    input: "val_196"
    input: "val_199"
    input: "val_202"
    input: "val_203"
    output: "slice_5"
    name: "node_Slice_389"
    op_type: "Slice"
  }
  node {
    input: "zeros_4"
    output: "val_217"
    name: "node_Shape_404"
    op_type: "Shape"
    attribute {
      name: "start"
      i: 0
      type: INT
    }
  }
  node {
    input: "zeros_4"
    output: "val_226"
    name: "node_Transpose_413"
    op_type: "Transpose"
    attribute {
      name: "perm"
      ints: 1
      ints: 0
      ints: 2
      type: INTS
    }
  }
  node {
    input: "view"
    input: "val_102"
    output: "view_5"
    name: "node_Reshape_209"
    op_type: "Reshape"
    attribute {
      name: "allowzero"
      i: 0
      type: INT
    }
  }
  node {
    input: "shape"
    input: "dim_9"
    output: "dim_size"
    name: "n4_2_n2_13"
    op_type: "Gather"
    attribute {
      name: "axis"
      i: 0
      type: INT
    }
  }
  node {
    input: "encoder.relative_attention_bias_layer.bias_values.weight"
    input: "add_563"
    output: "embedding"
    name: "node_Gather_518"
    op_type: "Gather"
    attribute {
      name: "axis"
      i: 0
      type: INT
    }
  }
  node {
    input: "select"
    input: "val_31"
    output: "sub_18"
    name: "node_Sub_74"
    op_type: "Sub"
  }
  node {
    input: "select"
    input: "val_13"
    output: "gt"
    name: "node_Greater_89"
    op_type: "Greater"
  }
  node {
    input: "_unsafe_view"
    input: "encoder.embed.out.weight_Q4"
    input: "encoder.embed.out.weight_scales"
    output: "val_57"
    name: "node_MatMul_130_Q4"
    op_type: "MatMulNBits"
    attribute {
      name: "K"
      i: 10240
      type: INT
    }
    attribute {
      name: "N"
      i: 1024
      type: INT
    }
    attribute {
      name: "bits"
      i: 4
      type: INT
    }
    attribute {
      name: "block_size"
      i: 32
      type: INT
    }
    domain: "com.microsoft"
  }
  node {
    input: "bitwise_and_3"
    output: "tmp_4"
    name: "n0_23"
    op_type: "NonZero"
  }
  node {
    input: "slice_5"
    output: "val_205"
    name: "node_Shape_391"
    op_type: "Shape"
    attribute {
      name: "start"
      i: 0
      type: INT
    }
  }
  node {
    input: "slice_5"
    output: "val_214"
    name: "node_Transpose_400"
    op_type: "Transpose"
    attribute {
      name: "perm"
      ints: 2
      ints: 1
      ints: 0
      type: INTS
    }
  }
  node {
    input: "val_217"
    input: "val_4"
    output: "val_218"
    name: "node_Gather_405"
    op_type: "Gather"
    attribute {
      name: "axis"
      i: 0
      type: INT
    }
  }
  node {
    input: "view_5"
    output: "val_104"
    name: "node_Shape_210"
    op_type: "Shape"
    attribute {
      name: "start"
      i: 0
      type: INT
    }
  }
  node {
    input: "dim_size"
    input: "int64_1_cast"
    output: "cond_0"
    name: "n4_2_n5"
    op_type: "Equal"
  }
  node {
    input: "embedding"
    output: "permute"
    name: "node_Transpose_519"
    op_type: "Transpose"
    attribute {
      name: "perm"
      ints: 2
      ints: 0
      ints: 1
      type: INTS
    }
  }
  node {
    input: "sub_18"
    input: "val_13"
    output: "lt_1"
    name: "node_Less_75"
    op_type: "Less"
  }
  node {
    input: "gt"
    input: "lift_fresh_copy_3"
    input: "select"
    output: "index_put_1"
    name: "node_Where_91"
    op_type: "Where"
  }
  node {
    input: "val_57"
    input: "encoder.embed.out.bias"
    output: "linear"
    name: "node_Add_131"
    op_type: "Add"
  }
  node {
    input: "tmp_4"
    output: "nonzero_1"
    name: "n1_18"
    op_type: "Transpose"
    attribute {
      name: "perm"
      ints: 1
      ints: 0
      type: INTS
    }
  }
  node {
    input: "val_205"
    input: "val_124"
    output: "val_206"
    name: "node_Gather_392"
    op_type: "Gather"
    attribute {
      name: "axis"
      i: 0
      type: INT
    }
  }
  node {
    input: "val_13"
    input: "val_218"
    input: "val_4"
    output: "val_219"
    name: "node_Range_406"
    op_type: "Range"
  }
  node {
    input: "eq_134"
    input: "val_104"
    output: "full_like_2"
    name: "node_Expand_211"
    op_type: "Expand"
  }
  node {
    input: "cond_0"
    output: "squeeze"
    name: "n4_2_n6"
    op_type: "If"
    attribute {
      name: "else_branch"
      g {
        node {
          input: "unsqueeze_7"
          output: "result_3"
          name: "n0_19"
          op_type: "Identity"
        }
        name: "elseGraph_8"
        output {
          name: "result_3"
          type {
            tensor_type {
              elem_type: 9
              shape {
                dim {
                  dim_param: "s0"
                }
                dim {
                  dim_value: 1
                }
                dim {
                  dim_param: "(((s1 - 1)//8)) + 1"
                }
              }
            }
          }
        }
      }
      type: GRAPH
    }
    attribute {
      name: "then_branch"
      g {
        node {
          input: "unsqueeze_7"
          input: "dims"
          output: "result"
          name: "n3_3"
          op_type: "Squeeze"
        }
        name: "thenGraph_8"
        output {
          name: "result"
          type {
            tensor_type {
              elem_type: 9
              shape {
                dim {
                  dim_param: "s0"
                }
                dim {
                  dim_param: "(((s1 - 1)//8)) + 1"
                }
              }
            }
          }
        }
        value_info {
          name: "dims"
          type {
            tensor_type {
              elem_type: 7
              shape {
                dim {
                  dim_value: 1
                }
              }
            }
          }
        }
      }
      type: GRAPH
    }
  }
  node {
    input: "permute"
    input: "dim_0_19"
    output: "unsqueeze_18"
    name: "n2_28"
    op_type: "Unsqueeze"
  }
  node {
    input: "lt_1"
    input: "lift_fresh_copy_2"
    input: "sub_18"
    output: "index_put"
    name: "node_Where_77"
    op_type: "Where"
  }
  node {
    input: "index_put_1"
    input: "val_2"
    output: "val_43"
    name: "node_Unsqueeze_96"
    op_type: "Unsqueeze"
  }
  node {
    input: "linear"
    input: "encoder.encoders.0.feed_forward_in.layer_norm.weight"
    input: "encoder.encoders.0.feed_forward_in.layer_norm.bias"
    output: "layer_norm"
    name: "n0_39"
    op_type: "LayerNormalization"
    attribute {
      name: "axis"
      i: -1
      type: INT
    }
    attribute {
      name: "epsilon"
      f: 1e-05
      type: FLOAT
    }
  }
  node {
    input: "nonzero_1"
    input: "val_4"
    output: "select_1"
    name: "node_Gather_279"
    op_type: "Gather"
    attribute {
      name: "axis"
      i: 1
      type: INT
    }
  }
  node {
    input: "val_13"
    input: "val_206"
    input: "val_4"
    output: "val_207"
    name: "node_Range_393"
    op_type: "Range"
  }
  node {
    input: "val_219"
    input: "val_220"
    input: "val_221"
    input: "val_216"
    input: "val_222"
    output: "val_223"
    name: "node_Slice_410"
    op_type: "Slice"
  }
  node {
    input: "full_like_2"
    output: "bitwise_not"
    name: "node_Not_213"
    op_type: "Not"
  }
  node {
    input: "view_5"
    input: "full_like_2"
    output: "mul_160"
    name: "node_And_216"
    op_type: "And"
  }
  node {
    input: "squeeze"
    output: "convert_element_type_default_1"
    name: "node_Cast_231"
    op_type: "Cast"
    attribute {
      name: "to"
      i: 1
      type: INT
    }
  }
  node {
    input: "index_put"
    input: "val_2"
    output: "val_36"
    name: "node_Unsqueeze_82"
    op_type: "Unsqueeze"
  }
  node {
    input: "val_39"
    input: "val_43"
    output: "val_45"
    name: "node_GatherND_98"
    op_type: "GatherND"
    attribute {
      name: "batch_dims"
      i: 0
      type: INT
    }
  }
  node {
    input: "layer_norm"
    input: "encoder.encoders.0.feed_forward_in.net.0.linear.weight_Q4"
    input: "encoder.encoders.0.feed_forward_in.net.0.linear.weight_scales"
    output: "val_301"
    name: "node_MatMul_523_Q4"
    op_type: "MatMulNBits"
    attribute {
      name: "K"
      i: 1024
      type: INT
    }
    attribute {
      name: "N"
      i: 3072
      type: INT
    }
    attribute {
      name: "bits"
      i: 4
      type: INT
    }
    attribute {
      name: "block_size"
      i: 32
      type: INT
    }
    domain: "com.microsoft"
  }
  node {
    input: "select_1"
    input: "val_31"
    output: "sub_175"
    name: "node_Sub_287"
    op_type: "Sub"
  }
  node {
    input: "select_1"
    input: "val_13"
    output: "gt_3"
    name: "node_Greater_302"
    op_type: "Greater"
  }
  node {
    input: "val_207"
    input: "val_208"
    input: "val_209"
    input: "val_204"
    input: "val_210"
    output: "val_211"
    name: "node_Slice_397"
    op_type: "Slice"
  }
  node {
    input: "val_223"
    input: "val_2"
    output: "val_224"
    name: "node_Unsqueeze_411"
    op_type: "Unsqueeze"
  }
  node {
    input: "convert_element_type_default_1"
    input: "zeros_3"
    output: "cat_3"
    name: "node_Concat_232"
    op_type: "Concat"
    attribute {
      name: "axis"
      i: 1
      type: INT
    }
  }
  node {
    input: "val_32"
    input: "val_36"
    output: "val_38"
    name: "node_GatherND_84"
    op_type: "GatherND"
    attribute {
      name: "batch_dims"
      i: 0
      type: INT
    }
  }
  node {
    input: "val_45"
    output: "index_2"
    name: "node_Transpose_99"
    op_type: "Transpose"
    attribute {
      name: "perm"
      ints: 0
      type: INTS
    }
  }
  node {
    input: "val_301"
    input: "encoder.encoders.0.feed_forward_in.net.0.linear.bias"
    output: "linear_1"
    name: "node_Add_524"
    op_type: "Add"
  }
  node {
    input: "sub_175"
    input: "val_13"
    output: "lt_8"
    name: "node_Less_288"
    op_type: "Less"
  }
  node {
    input: "gt_3"
    input: "lift_fresh_copy_7"
    input: "select_1"
    output: "index_put_3"
    name: "node_Where_304"
    op_type: "Where"
  }
  node {
    input: "val_211"
    input: "val_2"
    output: "val_212"
    name: "node_Unsqueeze_398"
    op_type: "Unsqueeze"
  }
  node {
    input: "cat_3"
    input: "val_116"
    output: "view_7"
    name: "node_Reshape_239"
    op_type: "Reshape"
    attribute {
      name: "allowzero"
      i: 0
      type: INT
    }
  }
  node {
    input: "val_38"
    output: "index_1"
    name: "node_Transpose_85"
    op_type: "Transpose"
    attribute {
      name: "perm"
      ints: 0
      type: INTS
    }
  }
  node {
    input: "index_2"
    input: "dim_0_4"
    output: "unsqueeze_3"
    name: "n2_5"
    op_type: "Unsqueeze"
  }
  node {
    input: "linear_1"
    output: "split_split_0"
    output: "split_split_1"
    name: "node_Split_5952"
    op_type: "Split"
    attribute {
      name: "axis"
      i: 2
      type: INT
    }
    attribute {
      name: "num_outputs"
      i: 2
      type: INT
    }
  }
  node {
    input: "lt_8"
    input: "lift_fresh_copy_6"
    input: "sub_175"
    output: "index_put_2"
    name: "node_Where_290"
    op_type: "Where"
  }
  node {
    input: "index_put_3"
    input: "val_2"
    output: "val_150"
    name: "node_Unsqueeze_309"
    op_type: "Unsqueeze"
  }
  node {
    input: "view_7"
    output: "val_119"
    name: "node_Shape_241"
    op_type: "Shape"
    attribute {
      name: "start"
      i: 0
      type: INT
    }
  }
  node {
    input: "index_1"
    input: "dim_0_3"
    output: "unsqueeze_2"
    name: "n2_4"
    op_type: "Unsqueeze"
  }
  node {
    input: "expand"
    input: "unsqueeze_3"
    output: "lt_2"
    name: "node_Less_101"
    op_type: "Less"
  }
  node {
    input: "split_split_1"
    output: "sigmoid"
    name: "node_Sigmoid_529"
    op_type: "Sigmoid"
  }
  node {
    input: "index_put_2"
    input: "val_2"
    output: "val_143"
    name: "node_Unsqueeze_295"
    op_type: "Unsqueeze"
  }
  node {
    input: "val_146"
    input: "val_150"
    output: "val_152"
    name: "node_GatherND_311"
    op_type: "GatherND"
    attribute {
      name: "batch_dims"
      i: 0
      type: INT
    }
  }
  node {
    input: "val_118"
    input: "val_119"
    output: "full_like_3"
    name: "node_Expand_242"
    op_type: "Expand"
  }
  node {
    input: "expand"
    input: "unsqueeze_2"
    output: "ge_4"
    name: "node_GreaterOrEqual_87"
    op_type: "GreaterOrEqual"
  }
  node {
    input: "split_split_1"
    input: "sigmoid"
    output: "mul_390"
    name: "node_Mul_530"
    op_type: "Mul"
  }
  node {
    input: "val_139"
    input: "val_143"
    output: "val_145"
    name: "node_GatherND_297"
    op_type: "GatherND"
    attribute {
      name: "batch_dims"
      i: 0
      type: INT
    }
  }
  node {
    input: "val_152"
    output: "index_5"
    name: "node_Transpose_312"
    op_type: "Transpose"
    attribute {
      name: "perm"
      ints: 0
      type: INTS
    }
  }
  node {
    input: "full_like_3"
    output: "_to_copy_10"
    name: "node_Cast_243"
    op_type: "Cast"
    attribute {
      name: "to"
      i: 9
      type: INT
    }
  }
  node {
    input: "ge_4"
    input: "lt_2"
    output: "bitwise_and_1"
    name: "node_And_102"
    op_type: "And"
  }
  node {
    input: "split_split_0"
    input: "mul_390"
    output: "mul_394"
    name: "node_Mul_531"
    op_type: "Mul"
  }
  node {
    input: "val_145"
    output: "index_4"
    name: "node_Transpose_298"
    op_type: "Transpose"
    attribute {
      name: "perm"
      ints: 0
      type: INTS
    }
  }
  node {
    input: "index_5"
    input: "dim_0_12"
    output: "unsqueeze_11"
    name: "n2_19"
    op_type: "Unsqueeze"
  }
  node {
    input: "_to_copy_10"
    output: "convert_element_type_default_2"
    name: "node_Cast_244"
    op_type: "Cast"
    attribute {
      name: "to"
      i: 1
      type: INT
    }
  }
  node {
    input: "bitwise_and_1"
    input: "dim_0_5"
    output: "unsqueeze_4"
    name: "n2_6"
    op_type: "Unsqueeze"
  }
  node {
    input: "mul_394"
    input: "encoder.encoders.0.feed_forward_in.net.2.weight_Q4"
    input: "encoder.encoders.0.feed_forward_in.net.2.weight_scales"
    output: "val_304"
    name: "node_MatMul_534_Q4"
    op_type: "MatMulNBits"
    attribute {
      name: "K"
      i: 1536
      type: INT
    }
    attribute {
      name: "N"
      i: 1024
      type: INT
    }
    attribute {
      name: "bits"
      i: 4
      type: INT
    }
    attribute {
      name: "block_size"
      i: 32
      type: INT
    }
    domain: "com.microsoft"
  }
  node {
    input: "index_4"
    input: "dim_0_11"
    output: "unsqueeze_10"
    name: "n2_18"
    op_type: "Unsqueeze"
  }
  node {
    input: "expand_3"
    input: "unsqueeze_11"
    output: "lt_9"
    name: "node_Less_314"
    op_type: "Less"
  }
  node {
    input: "view_7"
    input: "convert_element_type_default_2"
    output: "mul_201"
    name: "node_Mul_245"
    op_type: "Mul"
  }
  node {
    input: "unsqueeze_4"
    input: "size_1_2"
    output: "expand_1"
    name: "n2_7"
    op_type: "Expand"
  }
  node {
    input: "val_304"
    input: "encoder.encoders.0.feed_forward_in.net.2.bias"
    output: "linear_2"
    name: "node_Add_535"
    op_type: "Add"
  }
  node {
    input: "expand_3"
    input: "unsqueeze_10"
    output: "ge_19"
    name: "node_GreaterOrEqual_300"
    op_type: "GreaterOrEqual"
  }
  node {
    input: "mul_201"
    input: "val_158"
    output: "sum_2"
    name: "node_ReduceSum_325"
    op_type: "ReduceSum"
    attribute {
      name: "keepdims"
      i: 0
      type: INT
    }
    attribute {
      name: "noop_with_empty_axes"
      i: 0
      type: INT
    }
  }
  node {
    input: "expand_1"
    input: "val_86"
    output: "view_2"
    name: "node_Reshape_187"
    op_type: "Reshape"
    attribute {
      name: "allowzero"
      i: 0
      type: INT
    }
  }
  node {
    input: "linear_2"
    input: "scalar_tensor_default_1"
    output: "mul_407"
    name: "node_Mul_539"
    op_type: "Mul"
  }
  node {
    input: "ge_19"
    input: "lt_9"
    output: "bitwise_and_4"
    name: "node_And_315"
    op_type: "And"
  }
  node {
    input: "sum_2"
    input: "dim_0_14"
    output: "unsqueeze_13"
    name: "n2_23"
    op_type: "Unsqueeze"
  }
  node {
    input: "view_2"
    input: "val_95"
    output: "view_4"
    name: "node_Reshape_198"
    op_type: "Reshape"
    attribute {
      name: "allowzero"
      i: 0
      type: INT
    }
  }
  node {
    input: "linear"
    input: "mul_407"
    input: "encoder.encoders.0.layer_norm_att.weight"
    input: "encoder.encoders.0.layer_norm_att.bias"
    output: "layer_norm_1"
    output: ""
    output: ""
    output: "add_621"
    name: "SkipLayerNorm_0"
    op_type: "SkipLayerNormalization"
    attribute {
      name: "epsilon"
      f: 1e-05
      type: FLOAT
    }
    domain: "com.microsoft"
  }
  node {
    input: "bitwise_and_4"
    input: "dim_0_13"
    output: "unsqueeze_12"
    name: "n2_20"
    op_type: "Unsqueeze"
  }
  node {
    input: "convert_element_type_default_3"
    input: "unsqueeze_13"
    output: "lt_10"
    name: "node_Less_334"
    op_type: "Less"
  }
  node {
    input: "view_4"
    output: "val_97"
    name: "node_Shape_199"
    op_type: "Shape"
    attribute {
      name: "start"
      i: 0
      type: INT
    }
  }
  node {
    input: "view_5"
    input: "view_4"
    output: "bitwise_and_2"
    name: "node_And_214"
    op_type: "And"
  }
  node {
    input: "view_4"
    input: "bitwise_not"
    output: "mul_165"
    name: "node_And_218"
    op_type: "And"
  }
  node {
    input: "unsqueeze_12"
    input: "size_1_5"
    output: "expand_4"
    name: "n2_21"
    op_type: "Expand"
  }
  node {
    input: "lt_10"
    input: "dim_0_15"
    output: "unsqueeze_14"
    name: "n2_24"
    op_type: "Unsqueeze"
  }
  node {
    input: "gt_2"
    input: "val_97"
    output: "full_like_1"
    name: "node_Expand_200"
    op_type: "Expand"
  }
  node {
    input: "expand_4"
    output: "val_163"
    name: "node_Shape_338"
    op_type: "Shape"
    attribute {
      name: "start"
      i: 0
      type: INT
    }
  }
  node {
    input: "unsqueeze_14"
    input: "expand_4"
    output: "bitwise_and_5"
    name: "node_And_336"
    op_type: "And"
  }
  node {
    input: "bitwise_and_2"
    input: "full_like_1"
    output: "mul_157"
    name: "node_And_215"
    op_type: "And"
  }
  node {
    input: "eq_240"
    input: "val_163"
    output: "full_like_4"
    name: "node_Expand_339"
    op_type: "Expand"
  }
  node {
    input: "mul_157"
    input: "mul_160"
    output: "add_254"
    name: "node_Or_217"
    op_type: "Or"
  }
  node {
    input: "full_like_4"
    output: "bitwise_not_1"
    name: "node_Not_341"
    op_type: "Not"
  }
  node {
    input: "expand_4"
    input: "full_like_4"
    output: "mul_253"
    name: "node_And_342"
    op_type: "And"
  }
  node {
    input: "add_254"
    input: "mul_165"
    output: "add_263"
    name: "node_Or_219"
    op_type: "Or"
  }
  node {
    input: "bitwise_and_5"
    input: "bitwise_not_1"
    output: "mul_256"
    name: "node_And_343"
    op_type: "And"
  }
  node {
    input: "add_263"
    output: "copy_2"
    name: "node_Cast_5872"
    op_type: "Cast"
    attribute {
      name: "to"
      i: 1
      type: INT
    }
  }
  node {
    input: "mul_253"
    input: "mul_256"
    output: "add_428"
    name: "node_Or_344"
    op_type: "Or"
  }
  node {
    input: "copy_2"
    output: "val_213"
    name: "node_Transpose_399"
    op_type: "Transpose"
    attribute {
      name: "perm"
      ints: 2
      ints: 1
      ints: 0
      type: INTS
    }
  }
  node {
    input: "add_428"
    output: "copy_3"
    name: "node_Cast_5887"
    op_type: "Cast"
    attribute {
      name: "to"
      i: 1
      type: INT
    }
  }
  node {
    input: "val_214"
    input: "val_212"
    input: "val_213"
    output: "val_215"
    name: "node_ScatterND_401"
    op_type: "ScatterND"
    attribute {
      name: "reduction"
      s: "none"
      type: STRING
    }
  }
  node {
    input: "copy_3"
    output: "val_239"
    name: "node_Shape_430"
    op_type: "Shape"
    attribute {
      name: "start"
      i: 0
      type: INT
    }
  }
  node {
    input: "val_215"
    output: "slice_scatter"
    name: "node_Transpose_402"
    op_type: "Transpose"
    attribute {
      name: "perm"
      ints: 2
      ints: 1
      ints: 0
      type: INTS
    }
  }
  node {
    input: "val_238"
    input: "val_239"
    output: "full_like_5"
    name: "node_Expand_431"
    op_type: "Expand"
  }
  node {
    input: "slice_scatter"
    output: "val_225"
    name: "node_Transpose_412"
    op_type: "Transpose"
    attribute {
      name: "perm"
      ints: 1
      ints: 0
      ints: 2
      type: INTS
    }
  }
  node {
    input: "full_like_5"
    output: "_to_copy_14"
    name: "node_Cast_432"
    op_type: "Cast"
    attribute {
      name: "to"
      i: 9
      type: INT
    }
  }
  node {
    input: "val_226"
    input: "val_224"
    input: "val_225"
    output: "val_227"
    name: "node_ScatterND_414"
    op_type: "ScatterND"
    attribute {
      name: "reduction"
      s: "none"
      type: STRING
    }
  }
  node {
    input: "_to_copy_14"
    output: "bitwise_not_2"
    name: "node_Not_433"
    op_type: "Not"
  }
  node {
    input: "_to_copy_14"
    output: "convert_element_type_default_4"
    name: "node_Cast_434"
    op_type: "Cast"
    attribute {
      name: "to"
      i: 1
      type: INT
    }
  }
  node {
    input: "val_227"
    output: "slice_scatter_1"
    name: "node_Transpose_415"
    op_type: "Transpose"
    attribute {
      name: "perm"
      ints: 1
      ints: 0
      ints: 2
      type: INTS
    }
  }
  node {
    input: "bitwise_not_2"
    output: "convert_element_type_default_5"
    name: "node_Cast_436"
    op_type: "Cast"
    attribute {
      name: "to"
      i: 1
      type: INT
    }
  }
  node {
    input: "copy_3"
    input: "convert_element_type_default_4"
    output: "mul_316"
    name: "node_Mul_435"
    op_type: "Mul"
  }
  node {
    input: "slice_scatter_1"
    input: "convert_element_type_default_5"
    output: "mul_320"
    name: "node_Mul_437"
    op_type: "Mul"
  }
  node {
    input: "mul_316"
    input: "mul_320"
    output: "add_501"
    name: "node_Add_438"
    op_type: "Add"
  }
  node {
    input: "add_501"
    input: "val_252"
    input: "val_255"
    input: "val_258"
    input: "val_259"
    output: "slice_9"
    name: "node_Slice_460"
    op_type: "Slice"
  }
  node {
    input: "slice_9"
    input: "val_262"
    input: "val_265"
    input: "val_268"
    input: "val_269"
    output: "slice_10"
    name: "node_Slice_471"
    op_type: "Slice"
  }
  node {
    input: "slice_10"
    output: "_to_copy_15"
    name: "node_Cast_472"
    op_type: "Cast"
    attribute {
      name: "to"
      i: 6
      type: INT
    }
  }
  node {
    input: "layer_norm_1"
    input: "Attention_0_qkv_weight"
    input: "Attention_0_qkv_bias"
    input: "_to_copy_15"
    input: ""
    input: "unsqueeze_18"
    output: "view_11"
    name: "Attention_0"
    op_type: "Attention"
    attribute {
      name: "num_heads"
      i: 16
      type: INT
    }
    domain: "com.microsoft"
  }
  node {
    input: "view_11"
    input: "encoder.encoders.0.self_attn.linear_out.weight_Q4"
    input: "encoder.encoders.0.self_attn.linear_out.weight_scales"
    output: "val_345"
    name: "node_MatMul_604_Q4"
    op_type: "MatMulNBits"
    attribute {
      name: "K"
      i: 1024
      type: INT
    }
    attribute {
      name: "N"
      i: 1024
      type: INT
    }
    attribute {
      name: "bits"
      i: 4
      type: INT
    }
    attribute {
      name: "block_size"
      i: 32
      type: INT
    }
    domain: "com.microsoft"
  }
  node {
    input: "val_345"
    input: "add_621"
    input: "encoder.encoders.0.conv.layer_norm.weight"
    input: "encoder.encoders.0.conv.layer_norm.bias"
    input: "encoder.encoders.0.self_attn.linear_out.bias"
    output: "layer_norm_2"
    output: ""
    output: ""
    output: "add_741"
    name: "SkipLayerNorm_AddBias_0"
    op_type: "SkipLayerNormalization"
    attribute {
      name: "epsilon"
      f: 1e-05
      type: FLOAT
    }
    domain: "com.microsoft"
  }
  node {
    input: "layer_norm_2"
    output: "permute_1"
    name: "node_Transpose_608"
    op_type: "Transpose"
    attribute {
      name: "perm"
      ints: 0
      ints: 2
      ints: 1
      type: INTS
    }
  }
  node {
    input: "permute_1"
    input: "encoder.encoders.0.conv.glu.ext_pw_conv_1d.weight"
    input: "encoder.encoders.0.conv.glu.ext_pw_conv_1d.bias"
    output: "conv1d"
    name: "node_Conv_609"
    op_type: "Conv"
    attribute {
      name: "auto_pad"
      s: "NOTSET"
      type: STRING
    }
    attribute {
      name: "dilations"
      ints: 1
      type: INTS
    }
    attribute {
      name: "group"
      i: 1
      type: INT
    }
    attribute {
      name: "pads"
      ints: 0
      ints: 0
      type: INTS
    }
    attribute {
      name: "strides"
      ints: 1
      type: INTS
    }
  }
  node {
    input: "conv1d"
    input: "val_358"
    input: "val_362"
    input: "val_365"
    input: "val_366"
    output: "slice_14"
    name: "node_Slice_632"
    op_type: "Slice"
  }
  node {
    input: "conv1d"
    input: "val_389"
    input: "val_393"
    input: "val_396"
    input: "val_397"
    output: "slice_17"
    name: "node_Slice_667"
    op_type: "Slice"
  }
  node {
    input: "slice_14"
    input: "encoder.encoders.0.conv.glu.b1"
    output: "add_770"
    name: "node_Add_644"
    op_type: "Add"
  }
  node {
    input: "slice_17"
    input: "encoder.encoders.0.conv.glu.b2"
    output: "add_787"
    name: "node_Add_679"
    op_type: "Add"
  }
  node {
    input: "add_787"
    output: "sigmoid_1"
    name: "node_Sigmoid_680"
    op_type: "Sigmoid"
  }
  node {
    input: "add_787"
    input: "sigmoid_1"
    output: "mul_538"
    name: "node_Mul_681"
    op_type: "Mul"
  }
  node {
    input: "add_770"
    input: "mul_538"
    output: "mul_542"
    name: "node_Mul_682"
    op_type: "Mul"
  }
  node {
    input: "mul_542"
    input: "encoder.encoders.0.conv.dw_sep_conv_1d.dw_conv.weight"
    input: "encoder.encoders.0.conv.dw_sep_conv_1d.dw_conv.bias"
    output: "conv1d_1"
    name: "node_Conv_685"
    op_type: "Conv"
    attribute {
      name: "auto_pad"
      s: "NOTSET"
      type: STRING
    }
    attribute {
      name: "dilations"
      ints: 1
      type: INTS
    }
    attribute {
      name: "group"
      i: 1024
      type: INT
    }
    attribute {
      name: "pads"
      ints: 2
      ints: 2
      type: INTS
    }
    attribute {
      name: "strides"
      ints: 1
      type: INTS
    }
  }
  node {
    input: "conv1d_1"
    input: "encoder.encoders.0.conv.dw_sep_conv_1d.pw_conv.weight"
    input: "encoder.encoders.0.conv.dw_sep_conv_1d.pw_conv.bias"
    output: "conv1d_2"
    name: "node_Conv_686"
    op_type: "Conv"
    attribute {
      name: "auto_pad"
      s: "NOTSET"
      type: STRING
    }
    attribute {
      name: "dilations"
      ints: 1
      type: INTS
    }
    attribute {
      name: "group"
      i: 1
      type: INT
    }
    attribute {
      name: "pads"
      ints: 0
      ints: 0
      type: INTS
    }
    attribute {
      name: "strides"
      ints: 1
      type: INTS
    }
  }
  node {
    input: "conv1d_2"
    input: "val_430"
    input: "val_434"
    input: "val_437"
    input: "val_438"
    output: "slice_21"
    name: "node_Slice_720"
    op_type: "Slice"
  }
  node {
    input: "slice_21"
    output: "sigmoid_2"
    name: "node_Sigmoid_721"
    op_type: "Sigmoid"
  }
  node {
    input: "slice_21"
    input: "sigmoid_2"
    output: "mul_570"
    name: "node_Mul_722"
    op_type: "Mul"
  }
  node {
    input: "mul_570"
    input: "encoder.encoders.0.conv.ext_pw_conv_1d.weight"
    input: "encoder.encoders.0.conv.ext_pw_conv_1d.bias"
    output: "conv1d_3"
    name: "node_Conv_723"
    op_type: "Conv"
    attribute {
      name: "auto_pad"
      s: "NOTSET"
      type: STRING
    }
    attribute {
      name: "dilations"
      ints: 1
      type: INTS
    }
    attribute {
      name: "group"
      i: 1
      type: INT
    }
    attribute {
      name: "pads"
      ints: 0
      ints: 0
      type: INTS
    }
    attribute {
      name: "strides"
      ints: 1
      type: INTS
    }
  }
  node {
    input: "conv1d_3"
    output: "permute_4"
    name: "node_Transpose_724"
    op_type: "Transpose"
    attribute {
      name: "perm"
      ints: 0
      ints: 2
      ints: 1
      type: INTS
    }
  }
  node {
    input: "add_741"
    input: "permute_4"
    input: "encoder.encoders.0.feed_forward_out.layer_norm.weight"
    input: "encoder.encoders.0.feed_forward_out.layer_norm.bias"
    output: "layer_norm_3"
    output: ""
    output: ""
    output: "add_852"
    name: "SkipLayerNorm_2"
    op_type: "SkipLayerNormalization"
    attribute {
      name: "epsilon"
      f: 1e-05
      type: FLOAT
    }
    domain: "com.microsoft"
  }
  node {
    input: "layer_norm_3"
    input: "encoder.encoders.0.feed_forward_out.net.0.linear.weight_Q4"
    input: "encoder.encoders.0.feed_forward_out.net.0.linear.weight_scales"
    output: "val_440"
    name: "node_MatMul_729_Q4"
    op_type: "MatMulNBits"
    attribute {
      name: "K"
      i: 1024
      type: INT
    }
    attribute {
      name: "N"
      i: 3072
      type: INT
    }
    attribute {
      name: "bits"
      i: 4
      type: INT
    }
    attribute {
      name: "block_size"
      i: 32
      type: INT
    }
    domain: "com.microsoft"
  }
  node {
    input: "val_440"
    input: "encoder.encoders.0.feed_forward_out.net.0.linear.bias"
    output: "linear_7"
    name: "node_Add_730"
    op_type: "Add"
  }
  node {
    input: "linear_7"
    output: "split_1_split_0"
    output: "split_1_split_1"
    name: "node_Split_6048"
    op_type: "Split"
    attribute {
      name: "axis"
      i: 2
      type: INT
    }
    attribute {
      name: "num_outputs"
      i: 2
      type: INT
    }
  }
  node {
    input: "split_1_split_1"
    output: "sigmoid_3"
    name: "node_Sigmoid_734"
    op_type: "Sigmoid"
  }
  node {
    input: "split_1_split_1"
    input: "sigmoid_3"
    output: "mul_601"
    name: "node_Mul_735"
    op_type: "Mul"
  }
  node {
    input: "split_1_split_0"
    input: "mul_601"
    output: "mul_605"
    name: "node_Mul_736"
    op_type: "Mul"
  }
  node {
    input: "mul_605"
    input: "encoder.encoders.0.feed_forward_out.net.2.weight_Q4"
    input: "encoder.encoders.0.feed_forward_out.net.2.weight_scales"
    output: "val_442"
    name: "node_MatMul_739_Q4"
    op_type: "MatMulNBits"
    attribute {
      name: "K"
      i: 1536
      type: INT
    }
    attribute {
      name: "N"
      i: 1024
      type: INT
    }
    attribute {
      name: "bits"
      i: 4
      type: INT
    }
    attribute {
      name: "block_size"
      i: 32
      type: INT
    }
    domain: "com.microsoft"
  }
  node {
    input: "val_442"
    input: "encoder.encoders.0.feed_forward_out.net.2.bias"
    output: "linear_8"
    name: "node_Add_740"
    op_type: "Add"
  }
  node {
    input: "linear_8"
    input: "scalar_tensor_default_3"
    output: "mul_618"
    name: "node_Mul_743"
    op_type: "Mul"
  }
  node {
    input: "add_852"
    input: "mul_618"
    input: "encoder.encoders.0.layer_norm.weight"
    input: "encoder.encoders.0.layer_norm.bias"
    output: "layer_norm_4"
    name: "SkipLayerNorm_3"
    op_type: "SkipLayerNormalization"
    attribute {
      name: "epsilon"
      f: 1e-05
      type: FLOAT
    }
    domain: "com.microsoft"
  }
  node {
    input: "layer_norm_4"
    input: "encoder.encoders.1.feed_forward_in.layer_norm.weight"
    input: "encoder.encoders.1.feed_forward_in.layer_norm.bias"
    output: "layer_norm_5"
    name: "n0_52"
    op_type: "LayerNormalization"
    attribute {
      name: "axis"
      i: -1
      type: INT
    }
    attribute {
      name: "epsilon"
      f: 1e-05
      type: FLOAT
    }
  }
  node {
    input: "layer_norm_5"
    input: "encoder.encoders.1.feed_forward_in.net.0.linear.weight_Q4"
    input: "encoder.encoders.1.feed_forward_in.net.0.linear.weight_scales"
    output: "val_444"
    name: "node_MatMul_748_Q4"
    op_type: "MatMulNBits"
    attribute {
      name: "K"
      i: 1024
      type: INT
    }
    attribute {
      name: "N"
      i: 3072
      type: INT
    }
    attribute {
      name: "bits"
      i: 4
      type: INT
    }
    attribute {
      name: "block_size"
      i: 32
      type: INT
    }
    domain: "com.microsoft"
  }
  node {
    input: "val_444"
    input: "encoder.encoders.1.feed_forward_in.net.0.linear.bias"
    output: "linear_9"
    name: "node_Add_749"
    op_type: "Add"
  }
  node {
    input: "linear_9"
    output: "split_2_split_0"
    output: "split_2_split_1"
    name: "node_Split_6053"
    op_type: "Split"
    attribute {
      name: "axis"
      i: 2
      type: INT
    }
    attribute {
      name: "num_outputs"
      i: 2
      type: INT
    }
  }
  node {
    input: "split_2_split_1"
    output: "sigmoid_4"
    name: "node_Sigmoid_753"
    op_type: "Sigmoid"
  }
  node {
    input: "split_2_split_1"
    input: "sigmoid_4"
    output: "mul_643"
    name: "node_Mul_754"
    op_type: "Mul"
  }
  node {
    input: "split_2_split_0"
    input: "mul_643"
    output: "mul_647"
    name: "node_Mul_755"
    op_type: "Mul"
  }
  node {
    input: "mul_647"
    input: "encoder.encoders.1.feed_forward_in.net.2.weight_Q4"
    input: "encoder.encoders.1.feed_forward_in.net.2.weight_scales"
    output: "val_446"
    name: "node_MatMul_758_Q4"
    op_type: "MatMulNBits"
    attribute {
      name: "K"
      i: 1536
      type: INT
    }
    attribute {
      name: "N"
      i: 1024
      type: INT
    }
    attribute {
      name: "bits"
      i: 4
      type: INT
    }
    attribute {
      name: "block_size"
      i: 32
      type: INT
    }
    domain: "com.microsoft"
  }
  node {
    input: "val_446"
    input: "encoder.encoders.1.feed_forward_in.net.2.bias"
    output: "linear_10"
    name: "node_Add_759"
    op_type: "Add"
  }
  node {
    input: "linear_10"
    input: "scalar_tensor_default_4"
    output: "mul_660"
    name: "node_Mul_762"
    op_type: "Mul"
  }
  node {
    input: "layer_norm_4"
    input: "mul_660"
    input: "encoder.encoders.1.layer_norm_att.weight"
    input: "encoder.encoders.1.layer_norm_att.bias"
    output: "layer_norm_6"
    output: ""
    output: ""
    output: "add_954"
    name: "SkipLayerNorm_4"
    op_type: "SkipLayerNormalization"
    attribute {
      name: "epsilon"
      f: 1e-05
      type: FLOAT
    }
    domain: "com.microsoft"
  }
  node {
    input: "layer_norm_6"
    input: "Attention_1_qkv_weight"
    input: "Attention_1_qkv_bias"
    input: "_to_copy_15"
    input: ""
    input: "unsqueeze_18"
    output: "view_15"
    name: "Attention_1"
    op_type: "Attention"
    attribute {
      name: "num_heads"
      i: 16
      type: INT
    }
    domain: "com.microsoft"
  }
  node {
    input: "view_15"
    input: "encoder.encoders.1.self_attn.linear_out.weight_Q4"
    input: "encoder.encoders.1.self_attn.linear_out.weight_scales"
    output: "val_480"
    name: "node_MatMul_821_Q4"
    op_type: "MatMulNBits"
    attribute {
      name: "K"
      i: 1024
      type: INT
    }
    attribute {
      name: "N"
      i: 1024
      type: INT
    }
    attribute {
      name: "bits"
      i: 4
      type: INT
    }
    attribute {
      name: "block_size"
      i: 32
      type: INT
    }
    domain: "com.microsoft"
  }
  node {
    input: "val_480"
    input: "add_954"
    input: "encoder.encoders.1.conv.layer_norm.weight"
    input: "encoder.encoders.1.conv.layer_norm.bias"
    input: "encoder.encoders.1.self_attn.linear_out.bias"
    output: "layer_norm_7"
    output: ""
    output: ""
    output: "add_1074"
    name: "SkipLayerNorm_AddBias_1"
    op_type: "SkipLayerNormalization"
    attribute {
      name: "epsilon"
      f: 1e-05
      type: FLOAT
    }
    domain: "com.microsoft"
  }
  node {
    input: "layer_norm_7"
    output: "permute_5"
    name: "node_Transpose_825"
    op_type: "Transpose"
    attribute {
      name: "perm"
      ints: 0
      ints: 2
      ints: 1
      type: INTS
    }
  }
  node {
    input: "permute_5"
    input: "encoder.encoders.1.conv.glu.ext_pw_conv_1d.weight"
    input: "encoder.encoders.1.conv.glu.ext_pw_conv_1d.bias"
    output: "conv1d_4"
    name: "node_Conv_826"
    op_type: "Conv"
    attribute {
      name: "auto_pad"
      s: "NOTSET"
      type: STRING
    }
    attribute {
      name: "dilations"
      ints: 1
      type: INTS
    }
    attribute {
      name: "group"
      i: 1
      type: INT
    }
    attribute {
      name: "pads"
      ints: 0
      ints: 0
      type: INTS
    }
    attribute {
      name: "strides"
      ints: 1
      type: INTS
    }
  }
  node {
    input: "conv1d_4"
    input: "val_493"
    input: "val_496"
    input: "val_499"
    input: "val_500"
    output: "slice_23"
    name: "node_Slice_848"
    op_type: "Slice"
  }
  node {
    input: "conv1d_4"
    input: "val_523"
    input: "val_526"
    input: "val_529"
    input: "val_530"
    output: "slice_26"
    name: "node_Slice_882"
    op_type: "Slice"
  }
  node {
    input: "slice_23"
    input: "encoder.encoders.1.conv.glu.b1"
    output: "add_1103"
    name: "node_Add_860"
    op_type: "Add"
  }
  node {
    input: "slice_26"
    input: "encoder.encoders.1.conv.glu.b2"
    output: "add_1120"
    name: "node_Add_894"
    op_type: "Add"
  }
  node {
    input: "add_1120"
    output: "sigmoid_5"
    name: "node_Sigmoid_895"
    op_type: "Sigmoid"
  }
  node {
    input: "add_1120"
    input: "sigmoid_5"
    output: "mul_791"
    name: "node_Mul_896"
    op_type: "Mul"
  }
  node {
    input: "add_1103"
    input: "mul_791"
    output: "mul_795"
    name: "node_Mul_897"
    op_type: "Mul"
  }
  node {
    input: "mul_795"
    input: "encoder.encoders.1.conv.dw_sep_conv_1d.dw_conv.weight"
    input: "encoder.encoders.1.conv.dw_sep_conv_1d.dw_conv.bias"
    output: "conv1d_5"
    name: "node_Conv_900"
    op_type: "Conv"
    attribute {
      name: "auto_pad"
      s: "NOTSET"
      type: STRING
    }
    attribute {
      name: "dilations"
      ints: 1
      type: INTS
    }
    attribute {
      name: "group"
      i: 1024
      type: INT
    }
    attribute {
      name: "pads"
      ints: 2
      ints: 2
      type: INTS
    }
    attribute {
      name: "strides"
      ints: 1
      type: INTS
    }
  }
  node {
    input: "conv1d_5"
    input: "encoder.encoders.1.conv.dw_sep_conv_1d.pw_conv.weight"
    input: "encoder.encoders.1.conv.dw_sep_conv_1d.pw_conv.bias"
    output: "conv1d_6"
    name: "node_Conv_901"
    op_type: "Conv"
    attribute {
      name: "auto_pad"
      s: "NOTSET"
      type: STRING
    }
    attribute {
      name: "dilations"
      ints: 1
      type: INTS
    }
    attribute {
      name: "group"
      i: 1
      type: INT
    }
    attribute {
      name: "pads"
      ints: 0
      ints: 0
      type: INTS
    }
    attribute {
      name: "strides"
      ints: 1
      type: INTS
    }
  }
  node {
    input: "conv1d_6"
    input: "val_563"
    input: "val_566"
    input: "val_569"
    input: "val_570"
    output: "slice_30"
    name: "node_Slice_934"
    op_type: "Slice"
  }
  node {
    input: "slice_30"
    output: "sigmoid_6"
    name: "node_Sigmoid_935"
    op_type: "Sigmoid"
  }
  node {
    input: "slice_30"
    input: "sigmoid_6"
    output: "mul_823"
    name: "node_Mul_936"
    op_type: "Mul"
  }
  node {
    input: "mul_823"
    input: "encoder.encoders.1.conv.ext_pw_conv_1d.weight"
    input: "encoder.encoders.1.conv.ext_pw_conv_1d.bias"
    output: "conv1d_7"
    name: "node_Conv_937"
    op_type: "Conv"
    attribute {
      name: "auto_pad"
      s: "NOTSET"
      type: STRING
    }
    attribute {
      name: "dilations"
      ints: 1
      type: INTS
    }
    attribute {
      name: "group"
      i: 1
      type: INT
    }
    attribute {
      name: "pads"
      ints: 0
      ints: 0
      type: INTS
    }
    attribute {
      name: "strides"
      ints: 1
      type: INTS
    }
  }
  node {
    input: "conv1d_7"
    output: "permute_8"
    name: "node_Transpose_938"
    op_type: "Transpose"
    attribute {
      name: "perm"
      ints: 0
      ints: 2
      ints: 1
      type: INTS
    }
  }
  node {
    input: "add_1074"
    input: "permute_8"
    input: "encoder.encoders.1.feed_forward_out.layer_norm.weight"
    input: "encoder.encoders.1.feed_forward_out.layer_norm.bias"
    output: "layer_norm_8"
    output: ""
    output: ""
    output: "add_1185"
    name: "SkipLayerNorm_6"
    op_type: "SkipLayerNormalization"
    attribute {
      name: "epsilon"
      f: 1e-05
      type: FLOAT
    }
    domain: "com.microsoft"
  }
  node {
    input: "layer_norm_8"
    input: "encoder.encoders.1.feed_forward_out.net.0.linear.weight_Q4"
    input: "encoder.encoders.1.feed_forward_out.net.0.linear.weight_scales"
    output: "val_572"
    name: "node_MatMul_943_Q4"
    op_type: "MatMulNBits"
    attribute {
      name: "K"
      i: 1024
      type: INT
    }
    attribute {
      name: "N"
      i: 3072
      type: INT
    }
    attribute {
      name: "bits"
      i: 4
      type: INT
    }
    attribute {
      name: "block_size"
      i: 32
      type: INT
    }
    domain: "com.microsoft"
  }
  node {
    input: "val_572"
    input: "encoder.encoders.1.feed_forward_out.net.0.linear.bias"
    output: "linear_15"
    name: "node_Add_944"
    op_type: "Add"
  }
  node {
    input: "linear_15"
    output: "split_3_split_0"
    output: "split_3_split_1"
    name: "node_Split_6149"
    op_type: "Split"
    attribute {
      name: "axis"
      i: 2
      type: INT
    }
    attribute {
      name: "num_outputs"
      i: 2
      type: INT
    }
  }
  node {
    input: "split_3_split_1"
    output: "sigmoid_7"
    name: "node_Sigmoid_948"
    op_type: "Sigmoid"
  }
  node {
    input: "split_3_split_1"
    input: "sigmoid_7"
    output: "mul_854"
    name: "node_Mul_949"
    op_type: "Mul"
  }
  node {
    input: "split_3_split_0"
    input: "mul_854"
    output: "mul_858"
    name: "node_Mul_950"
    op_type: "Mul"
  }
  node {
    input: "mul_858"
    input: "encoder.encoders.1.feed_forward_out.net.2.weight_Q4"
    input: "encoder.encoders.1.feed_forward_out.net.2.weight_scales"
    output: "val_574"
    name: "node_MatMul_953_Q4"
    op_type: "MatMulNBits"
    attribute {
      name: "K"
      i: 1536
      type: INT
    }
    attribute {
      name: "N"
      i: 1024
      type: INT
    }
    attribute {
      name: "bits"
      i: 4
      type: INT
    }
    attribute {
      name: "block_size"
      i: 32
      type: INT
    }
    domain: "com.microsoft"
  }
  node {
    input: "val_574"
    input: "encoder.encoders.1.feed_forward_out.net.2.bias"
    output: "linear_16"
    name: "node_Add_954"
    op_type: "Add"
  }
  node {
    input: "linear_16"
    input: "scalar_tensor_default_6"
    output: "mul_871"
    name: "node_Mul_957"
    op_type: "Mul"
  }
  node {
    input: "add_1185"
    input: "mul_871"
    input: "encoder.encoders.1.layer_norm.weight"
    input: "encoder.encoders.1.layer_norm.bias"
    output: "layer_norm_9"
    name: "SkipLayerNorm_7"
    op_type: "SkipLayerNormalization"
    attribute {
      name: "epsilon"
      f: 1e-05
      type: FLOAT
    }
    domain: "com.microsoft"
  }
  node {
    input: "layer_norm_9"
    input: "encoder.encoders.2.feed_forward_in.layer_norm.weight"
    input: "encoder.encoders.2.feed_forward_in.layer_norm.bias"
    output: "layer_norm_10"
    name: "n0_65"
    op_type: "LayerNormalization"
    attribute {
      name: "axis"
      i: -1
      type: INT
    }
    attribute {
      name: "epsilon"
      f: 1e-05
      type: FLOAT
    }
  }
  node {
    input: "layer_norm_10"
    input: "encoder.encoders.2.feed_forward_in.net.0.linear.weight_Q4"
    input: "encoder.encoders.2.feed_forward_in.net.0.linear.weight_scales"
    output: "val_576"
    name: "node_MatMul_962_Q4"
    op_type: "MatMulNBits"
    attribute {
      name: "K"
      i: 1024
      type: INT
    }
    attribute {
      name: "N"
      i: 3072
      type: INT
    }
    attribute {
      name: "bits"
      i: 4
      type: INT
    }
    attribute {
      name: "block_size"
      i: 32
      type: INT
    }
    domain: "com.microsoft"
  }
  node {
    input: "val_576"
    input: "encoder.encoders.2.feed_forward_in.net.0.linear.bias"
    output: "linear_17"
    name: "node_Add_963"
    op_type: "Add"
  }
  node {
    input: "linear_17"
    output: "split_4_split_0"
    output: "split_4_split_1"
    name: "node_Split_6154"
    op_type: "Split"
    attribute {
      name: "axis"
      i: 2
      type: INT
    }
    attribute {
      name: "num_outputs"
      i: 2
      type: INT
    }
  }
  node {
    input: "split_4_split_1"
    output: "sigmoid_8"
    name: "node_Sigmoid_967"
    op_type: "Sigmoid"
  }
  node {
    input: "split_4_split_1"
    input: "sigmoid_8"
    output: "mul_896"
    name: "node_Mul_968"
    op_type: "Mul"
  }
  node {
    input: "split_4_split_0"
    input: "mul_896"
    output: "mul_900"
    name: "node_Mul_969"
    op_type: "Mul"
  }
  node {
    input: "mul_900"
    input: "encoder.encoders.2.feed_forward_in.net.2.weight_Q4"
    input: "encoder.encoders.2.feed_forward_in.net.2.weight_scales"
    output: "val_578"
    name: "node_MatMul_972_Q4"
    op_type: "MatMulNBits"
    attribute {
      name: "K"
      i: 1536
      type: INT
    }
    attribute {
      name: "N"
      i: 1024
      type: INT
    }
    attribute {
      name: "bits"
      i: 4
      type: INT
    }
    attribute {
      name: "block_size"
      i: 32
      type: INT
    }
    domain: "com.microsoft"
  }
  node {
    input: "val_578"
    input: "encoder.encoders.2.feed_forward_in.net.2.bias"
    output: "linear_18"
    name: "node_Add_973"
    op_type: "Add"
  }
  node {
    input: "linear_18"
    input: "scalar_tensor_default_7"
    output: "mul_913"
    name: "node_Mul_976"
    op_type: "Mul"
  }
  node {
    input: "layer_norm_9"
    input: "mul_913"
    input: "encoder.encoders.2.layer_norm_att.weight"
    input: "encoder.encoders.2.layer_norm_att.bias"
    output: "layer_norm_11"
    output: ""
    output: ""
    output: "add_1287"
    name: "SkipLayerNorm_8"
    op_type: "SkipLayerNormalization"
    attribute {
      name: "epsilon"
      f: 1e-05
      type: FLOAT
    }
    domain: "com.microsoft"
  }
  node {
    input: "layer_norm_11"
    input: "Attention_2_qkv_weight"
    input: "Attention_2_qkv_bias"
    input: "_to_copy_15"
    input: ""
    input: "unsqueeze_18"
    output: "view_19"
    name: "Attention_2"
    op_type: "Attention"
    attribute {
      name: "num_heads"
      i: 16
      type: INT
    }
    domain: "com.microsoft"
  }
  node {
    input: "view_19"
    input: "encoder.encoders.2.self_attn.linear_out.weight_Q4"
    input: "encoder.encoders.2.self_attn.linear_out.weight_scales"
    output: "val_612"
    name: "node_MatMul_1035_Q4"
    op_type: "MatMulNBits"
    attribute {
      name: "K"
      i: 1024
      type: INT
    }
    attribute {
      name: "N"
      i: 1024
      type: INT
    }
    attribute {
      name: "bits"
      i: 4
      type: INT
    }
    attribute {
      name: "block_size"
      i: 32
      type: INT
    }
    domain: "com.microsoft"
  }
  node {
    input: "val_612"
    input: "add_1287"
    input: "encoder.encoders.2.conv.layer_norm.weight"
    input: "encoder.encoders.2.conv.layer_norm.bias"
    input: "encoder.encoders.2.self_attn.linear_out.bias"
    output: "layer_norm_12"
    output: ""
    output: ""
    output: "add_1407"
    name: "SkipLayerNorm_AddBias_2"
    op_type: "SkipLayerNormalization"
    attribute {
      name: "epsilon"
      f: 1e-05
      type: FLOAT
    }
    domain: "com.microsoft"
  }
  node {
    input: "layer_norm_12"
    output: "permute_9"
    name: "node_Transpose_1039"
    op_type: "Transpose"
    attribute {
      name: "perm"
      ints: 0
      ints: 2
      ints: 1
      type: INTS
    }
  }
  node {
    input: "permute_9"
    input: "encoder.encoders.2.conv.glu.ext_pw_conv_1d.weight"
    input: "encoder.encoders.2.conv.glu.ext_pw_conv_1d.bias"
    output: "conv1d_8"
    name: "node_Conv_1040"
    op_type: "Conv"
    attribute {
      name: "auto_pad"
      s: "NOTSET"
      type: STRING
    }
    attribute {
      name: "dilations"
      ints: 1
      type: INTS
    }
    attribute {
      name: "group"
      i: 1
      type: INT
    }
    attribute {
      name: "pads"
      ints: 0
      ints: 0
      type: INTS
    }
    attribute {
      name: "strides"
      ints: 1
      type: INTS
    }
  }
  node {
    input: "conv1d_8"
    input: "val_625"
    input: "val_628"
    input: "val_631"
    input: "val_632"
    output: "slice_32"
    name: "node_Slice_1062"
    op_type: "Slice"
  }
  node {
    input: "conv1d_8"
    input: "val_655"
    input: "val_658"
    input: "val_661"
    input: "val_662"
    output: "slice_35"
    name: "node_Slice_1096"
    op_type: "Slice"
  }
  node {
    input: "slice_32"
    input: "encoder.encoders.2.conv.glu.b1"
    output: "add_1436"
    name: "node_Add_1074"
    op_type: "Add"
  }
  node {
    input: "slice_35"
    input: "encoder.encoders.2.conv.glu.b2"
    output: "add_1453"
    name: "node_Add_1108"
    op_type: "Add"
  }
  node {
    input: "add_1453"
    output: "sigmoid_9"
    name: "node_Sigmoid_1109"
    op_type: "Sigmoid"
  }
  node {
    input: "add_1453"
    input: "sigmoid_9"
    output: "mul_1044"
    name: "node_Mul_1110"
    op_type: "Mul"
  }
  node {
    input: "add_1436"
    input: "mul_1044"
    output: "mul_1048"
    name: "node_Mul_1111"
    op_type: "Mul"
  }
  node {
    input: "mul_1048"
    input: "encoder.encoders.2.conv.dw_sep_conv_1d.dw_conv.weight"
    input: "encoder.encoders.2.conv.dw_sep_conv_1d.dw_conv.bias"
    output: "conv1d_9"
    name: "node_Conv_1114"
    op_type: "Conv"
    attribute {
      name: "auto_pad"
      s: "NOTSET"
      type: STRING
    }
    attribute {
      name: "dilations"
      ints: 1
      type: INTS
    }
    attribute {
      name: "group"
      i: 1024
      type: INT
    }
    attribute {
      name: "pads"
      ints: 2
      ints: 2
      type: INTS
    }
    attribute {
      name: "strides"
      ints: 1
      type: INTS
    }
  }
  node {
    input: "conv1d_9"
    input: "encoder.encoders.2.conv.dw_sep_conv_1d.pw_conv.weight"
    input: "encoder.encoders.2.conv.dw_sep_conv_1d.pw_conv.bias"
    output: "conv1d_10"
    name: "node_Conv_1115"
    op_type: "Conv"
    attribute {
      name: "auto_pad"
      s: "NOTSET"
      type: STRING
    }
    attribute {
      name: "dilations"
      ints: 1
      type: INTS
    }
    attribute {
      name: "group"
      i: 1
      type: INT
    }
    attribute {
      name: "pads"
      ints: 0
      ints: 0
      type: INTS
    }
    attribute {
      name: "strides"
      ints: 1
      type: INTS
    }
  }
  node {
    input: "conv1d_10"
    input: "val_695"
    input: "val_698"
    input: "val_701"
    input: "val_702"
    output: "slice_39"
    name: "node_Slice_1148"
    op_type: "Slice"
  }
  node {
    input: "slice_39"
    output: "sigmoid_10"
    name: "node_Sigmoid_1149"
    op_type: "Sigmoid"
  }
  node {
    input: "slice_39"
    input: "sigmoid_10"
    output: "mul_1076"
    name: "node_Mul_1150"
    op_type: "Mul"
  }
  node {
    input: "mul_1076"
    input: "encoder.encoders.2.conv.ext_pw_conv_1d.weight"
    input: "encoder.encoders.2.conv.ext_pw_conv_1d.bias"
    output: "conv1d_11"
    name: "node_Conv_1151"
    op_type: "Conv"
    attribute {
      name: "auto_pad"
      s: "NOTSET"
      type: STRING
    }
    attribute {
      name: "dilations"
      ints: 1
      type: INTS
    }
    attribute {
      name: "group"
      i: 1
      type: INT
    }
    attribute {
      name: "pads"
      ints: 0
      ints: 0
      type: INTS
    }
    attribute {
      name: "strides"
      ints: 1
      type: INTS
    }
  }
  node {
    input: "conv1d_11"
    output: "permute_12"
    name: "node_Transpose_1152"
    op_type: "Transpose"
    attribute {
      name: "perm"
      ints: 0
      ints: 2
      ints: 1
      type: INTS
    }
  }
  node {
    input: "add_1407"
    input: "permute_12"
    input: "encoder.encoders.2.feed_forward_out.layer_norm.weight"
    input: "encoder.encoders.2.feed_forward_out.layer_norm.bias"
    output: "layer_norm_13"
    output: ""
    output: ""
    output: "add_1518"
    name: "SkipLayerNorm_10"
    op_type: "SkipLayerNormalization"
    attribute {
      name: "epsilon"
      f: 1e-05
      type: FLOAT
    }
    domain: "com.microsoft"
  }
  node {
    input: "layer_norm_13"
    input: "encoder.encoders.2.feed_forward_out.net.0.linear.weight_Q4"
    input: "encoder.encoders.2.feed_forward_out.net.0.linear.weight_scales"
    output: "val_704"
    name: "node_MatMul_1157_Q4"
    op_type: "MatMulNBits"
    attribute {
      name: "K"
      i: 1024
      type: INT
    }
    attribute {
      name: "N"
      i: 3072
      type: INT
    }
    attribute {
      name: "bits"
      i: 4
      type: INT
    }
    attribute {
      name: "block_size"
      i: 32
      type: INT
    }
    domain: "com.microsoft"
  }
  node {
    input: "val_704"
    input: "encoder.encoders.2.feed_forward_out.net.0.linear.bias"
    output: "linear_23"
    name: "node_Add_1158"
    op_type: "Add"
  }
  node {
    input: "linear_23"
    output: "split_5_split_0"
    output: "split_5_split_1"
    name: "node_Split_6250"
    op_type: "Split"
    attribute {
      name: "axis"
      i: 2
      type: INT
    }
    attribute {
      name: "num_outputs"
      i: 2
      type: INT
    }
  }
  node {
    input: "split_5_split_1"
    output: "sigmoid_11"
    name: "node_Sigmoid_1162"
    op_type: "Sigmoid"
  }
  node {
    input: "split_5_split_1"
    input: "sigmoid_11"
    output: "mul_1107"
    name: "node_Mul_1163"
    op_type: "Mul"
  }
  node {
    input: "split_5_split_0"
    input: "mul_1107"
    output: "mul_1111"
    name: "node_Mul_1164"
    op_type: "Mul"
  }
  node {
    input: "mul_1111"
    input: "encoder.encoders.2.feed_forward_out.net.2.weight_Q4"
    input: "encoder.encoders.2.feed_forward_out.net.2.weight_scales"
    output: "val_706"
    name: "node_MatMul_1167_Q4"
    op_type: "MatMulNBits"
    attribute {
      name: "K"
      i: 1536
      type: INT
    }
    attribute {
      name: "N"
      i: 1024
      type: INT
    }
    attribute {
      name: "bits"
      i: 4
      type: INT
    }
    attribute {
      name: "block_size"
      i: 32
      type: INT
    }
    domain: "com.microsoft"
  }
  node {
    input: "val_706"
    input: "encoder.encoders.2.feed_forward_out.net.2.bias"
    output: "linear_24"
    name: "node_Add_1168"
    op_type: "Add"
  }
  node {
    input: "linear_24"
    input: "scalar_tensor_default_9"
    output: "mul_1124"
    name: "node_Mul_1171"
    op_type: "Mul"
  }
  node {
    input: "add_1518"
    input: "mul_1124"
    input: "encoder.encoders.2.layer_norm.weight"
    input: "encoder.encoders.2.layer_norm.bias"
    output: "layer_norm_14"
    name: "SkipLayerNorm_11"
    op_type: "SkipLayerNormalization"
    attribute {
      name: "epsilon"
      f: 1e-05
      type: FLOAT
    }
    domain: "com.microsoft"
  }
  node {
    input: "layer_norm_14"
    input: "encoder.encoders.3.feed_forward_in.layer_norm.weight"
    input: "encoder.encoders.3.feed_forward_in.layer_norm.bias"
    output: "layer_norm_15"
    name: "n0_78"
    op_type: "LayerNormalization"
    attribute {
      name: "axis"
      i: -1
      type: INT
    }
    attribute {
      name: "epsilon"
      f: 1e-05
      type: FLOAT
    }
  }
  node {
    input: "layer_norm_15"
    input: "encoder.encoders.3.feed_forward_in.net.0.linear.weight_Q4"
    input: "encoder.encoders.3.feed_forward_in.net.0.linear.weight_scales"
    output: "val_708"
    name: "node_MatMul_1176_Q4"
    op_type: "MatMulNBits"
    attribute {
      name: "K"
      i: 1024
      type: INT
    }
    attribute {
      name: "N"
      i: 3072
      type: INT
    }
    attribute {
      name: "bits"
      i: 4
      type: INT
    }
    attribute {
      name: "block_size"
      i: 32
      type: INT
    }
    domain: "com.microsoft"
  }
  node {
    input: "val_708"
    input: "encoder.encoders.3.feed_forward_in.net.0.linear.bias"
    output: "linear_25"
    name: "node_Add_1177"
    op_type: "Add"
  }
  node {
    input: "linear_25"
    output: "split_6_split_0"
    output: "split_6_split_1"
    name: "node_Split_6255"
    op_type: "Split"
    attribute {
      name: "axis"
      i: 2
      type: INT
    }
    attribute {
      name: "num_outputs"
      i: 2
      type: INT
    }
  }
  node {
    input: "split_6_split_1"
    output: "sigmoid_12"
    name: "node_Sigmoid_1181"
    op_type: "Sigmoid"
  }
  node {
    input: "split_6_split_1"
    input: "sigmoid_12"
    output: "mul_1149"
    name: "node_Mul_1182"
    op_type: "Mul"
  }
  node {
    input: "split_6_split_0"
    input: "mul_1149"
    output: "mul_1153"
    name: "node_Mul_1183"
    op_type: "Mul"
  }
  node {
    input: "mul_1153"
    input: "encoder.encoders.3.feed_forward_in.net.2.weight_Q4"
    input: "encoder.encoders.3.feed_forward_in.net.2.weight_scales"
    output: "val_710"
    name: "node_MatMul_1186_Q4"
    op_type: "MatMulNBits"
    attribute {
      name: "K"
      i: 1536
      type: INT
    }
    attribute {
      name: "N"
      i: 1024
      type: INT
    }
    attribute {
      name: "bits"
      i: 4
      type: INT
    }
    attribute {
      name: "block_size"
      i: 32
      type: INT
    }
    domain: "com.microsoft"
  }
  node {
    input: "val_710"
    input: "encoder.encoders.3.feed_forward_in.net.2.bias"
    output: "linear_26"
    name: "node_Add_1187"
    op_type: "Add"
  }
  node {
    input: "linear_26"
    input: "scalar_tensor_default_10"
    output: "mul_1166"
    name: "node_Mul_1190"
    op_type: "Mul"
  }
  node {
    input: "layer_norm_14"
    input: "mul_1166"
    input: "encoder.encoders.3.layer_norm_att.weight"
    input: "encoder.encoders.3.layer_norm_att.bias"
    output: "layer_norm_16"
    output: ""
    output: ""
    output: "add_1620"
    name: "SkipLayerNorm_12"
    op_type: "SkipLayerNormalization"
    attribute {
      name: "epsilon"
      f: 1e-05
      type: FLOAT
    }
    domain: "com.microsoft"
  }
  node {
    input: "layer_norm_16"
    input: "Attention_3_qkv_weight"
    input: "Attention_3_qkv_bias"
    input: "_to_copy_15"
    input: ""
    input: "unsqueeze_18"
    output: "view_23"
    name: "Attention_3"
    op_type: "Attention"
    attribute {
      name: "num_heads"
      i: 16
      type: INT
    }
    domain: "com.microsoft"
  }
  node {
    input: "view_23"
    input: "encoder.encoders.3.self_attn.linear_out.weight_Q4"
    input: "encoder.encoders.3.self_attn.linear_out.weight_scales"
    output: "val_744"
    name: "node_MatMul_1249_Q4"
    op_type: "MatMulNBits"
    attribute {
      name: "K"
      i: 1024
      type: INT
    }
    attribute {
      name: "N"
      i: 1024
      type: INT
    }
    attribute {
      name: "bits"
      i: 4
      type: INT
    }
    attribute {
      name: "block_size"
      i: 32
      type: INT
    }
    domain: "com.microsoft"
  }
  node {
    input: "val_744"
    input: "add_1620"
    input: "encoder.encoders.3.conv.layer_norm.weight"
    input: "encoder.encoders.3.conv.layer_norm.bias"
    input: "encoder.encoders.3.self_attn.linear_out.bias"
    output: "layer_norm_17"
    output: ""
    output: ""
    output: "add_1740"
    name: "SkipLayerNorm_AddBias_3"
    op_type: "SkipLayerNormalization"
    attribute {
      name: "epsilon"
      f: 1e-05
      type: FLOAT
    }
    domain: "com.microsoft"
  }
  node {
    input: "layer_norm_17"
    output: "permute_13"
    name: "node_Transpose_1253"
    op_type: "Transpose"
    attribute {
      name: "perm"
      ints: 0
      ints: 2
      ints: 1
      type: INTS
    }
  }
  node {
    input: "permute_13"
    input: "encoder.encoders.3.conv.glu.ext_pw_conv_1d.weight"
    input: "encoder.encoders.3.conv.glu.ext_pw_conv_1d.bias"
    output: "conv1d_12"
    name: "node_Conv_1254"
    op_type: "Conv"
    attribute {
      name: "auto_pad"
      s: "NOTSET"
      type: STRING
    }
    attribute {
      name: "dilations"
      ints: 1
      type: INTS
    }
    attribute {
      name: "group"
      i: 1
      type: INT
    }
    attribute {
      name: "pads"
      ints: 0
      ints: 0
      type: INTS
    }
    attribute {
      name: "strides"
      ints: 1
      type: INTS
    }
  }
  node {
    input: "conv1d_12"
    input: "val_757"
    input: "val_760"
    input: "val_763"
    input: "val_764"
    output: "slice_41"
    name: "node_Slice_1276"
    op_type: "Slice"
  }
  node {
    input: "conv1d_12"
    input: "val_787"
    input: "val_790"
    input: "val_793"
    input: "val_794"
    output: "slice_44"
    name: "node_Slice_1310"
    op_type: "Slice"
  }
  node {
    input: "slice_41"
    input: "encoder.encoders.3.conv.glu.b1"
    output: "add_1769"
    name: "node_Add_1288"
    op_type: "Add"
  }
  node {
    input: "slice_44"
    input: "encoder.encoders.3.conv.glu.b2"
    output: "add_1786"
    name: "node_Add_1322"
    op_type: "Add"
  }
  node {
    input: "add_1786"
    output: "sigmoid_13"
    name: "node_Sigmoid_1323"
    op_type: "Sigmoid"
  }
  node {
    input: "add_1786"
    input: "sigmoid_13"
    output: "mul_1297"
    name: "node_Mul_1324"
    op_type: "Mul"
  }
  node {
    input: "add_1769"
    input: "mul_1297"
    output: "mul_1301"
    name: "node_Mul_1325"
    op_type: "Mul"
  }
  node {
    input: "mul_1301"
    input: "encoder.encoders.3.conv.dw_sep_conv_1d.dw_conv.weight"
    input: "encoder.encoders.3.conv.dw_sep_conv_1d.dw_conv.bias"
    output: "conv1d_13"
    name: "node_Conv_1328"
    op_type: "Conv"
    attribute {
      name: "auto_pad"
      s: "NOTSET"
      type: STRING
    }
    attribute {
      name: "dilations"
      ints: 1
      type: INTS
    }
    attribute {
      name: "group"
      i: 1024
      type: INT
    }
    attribute {
      name: "pads"
      ints: 2
      ints: 2
      type: INTS
    }
    attribute {
      name: "strides"
      ints: 1
      type: INTS
    }
  }
  node {
    input: "conv1d_13"
    input: "encoder.encoders.3.conv.dw_sep_conv_1d.pw_conv.weight"
    input: "encoder.encoders.3.conv.dw_sep_conv_1d.pw_conv.bias"
    output: "conv1d_14"
    name: "node_Conv_1329"
    op_type: "Conv"
    attribute {
      name: "auto_pad"
      s: "NOTSET"
      type: STRING
    }
    attribute {
      name: "dilations"
      ints: 1
      type: INTS
    }
    attribute {
      name: "group"
      i: 1
      type: INT
    }
    attribute {
      name: "pads"
      ints: 0
      ints: 0
      type: INTS
    }
    attribute {
      name: "strides"
      ints: 1
      type: INTS
    }
  }
  node {
    input: "conv1d_14"
    input: "val_827"
    input: "val_830"
    input: "val_833"
    input: "val_834"
    output: "slice_48"
    name: "node_Slice_1362"
    op_type: "Slice"
  }
  node {
    input: "slice_48"
    output: "sigmoid_14"
    name: "node_Sigmoid_1363"
    op_type: "Sigmoid"
  }
  node {
    input: "slice_48"
    input: "sigmoid_14"
    output: "mul_1329"
    name: "node_Mul_1364"
    op_type: "Mul"
  }
  node {
    input: "mul_1329"
    input: "encoder.encoders.3.conv.ext_pw_conv_1d.weight"
    input: "encoder.encoders.3.conv.ext_pw_conv_1d.bias"
    output: "conv1d_15"
    name: "node_Conv_1365"
    op_type: "Conv"
    attribute {
      name: "auto_pad"
      s: "NOTSET"
      type: STRING
    }
    attribute {
      name: "dilations"
      ints: 1
      type: INTS
    }
    attribute {
      name: "group"
      i: 1
      type: INT
    }
    attribute {
      name: "pads"
      ints: 0
      ints: 0
      type: INTS
    }
    attribute {
      name: "strides"
      ints: 1
      type: INTS
    }
  }
  node {
    input: "conv1d_15"
    output: "permute_16"
    name: "node_Transpose_1366"
    op_type: "Transpose"
    attribute {
      name: "perm"
      ints: 0
      ints: 2
      ints: 1
      type: INTS
    }
  }
  node {
    input: "add_1740"
    input: "permute_16"
    input: "encoder.encoders.3.feed_forward_out.layer_norm.weight"
    input: "encoder.encoders.3.feed_forward_out.layer_norm.bias"
    output: "layer_norm_18"
    output: ""
    output: ""
    output: "add_1851"
    name: "SkipLayerNorm_14"
    op_type: "SkipLayerNormalization"
    attribute {
      name: "epsilon"
      f: 1e-05
      type: FLOAT
    }
    domain: "com.microsoft"
  }
  node {
    input: "layer_norm_18"
    input: "encoder.encoders.3.feed_forward_out.net.0.linear.weight_Q4"
    input: "encoder.encoders.3.feed_forward_out.net.0.linear.weight_scales"
    output: "val_836"
    name: "node_MatMul_1371_Q4"
    op_type: "MatMulNBits"
    attribute {
      name: "K"
      i: 1024
      type: INT
    }
    attribute {
      name: "N"
      i: 3072
      type: INT
    }
    attribute {
      name: "bits"
      i: 4
      type: INT
    }
    attribute {
      name: "block_size"
      i: 32
      type: INT
    }
    domain: "com.microsoft"
  }
  node {
    input: "val_836"
    input: "encoder.encoders.3.feed_forward_out.net.0.linear.bias"
    output: "linear_31"
    name: "node_Add_1372"
    op_type: "Add"
  }
  node {
    input: "linear_31"
    output: "split_7_split_0"
    output: "split_7_split_1"
    name: "node_Split_6351"
    op_type: "Split"
    attribute {
      name: "axis"
      i: 2
      type: INT
    }
    attribute {
      name: "num_outputs"
      i: 2
      type: INT
    }
  }
  node {
    input: "split_7_split_1"
    output: "sigmoid_15"
    name: "node_Sigmoid_1376"
    op_type: "Sigmoid"
  }
  node {
    input: "split_7_split_1"
    input: "sigmoid_15"
    output: "mul_1360"
    name: "node_Mul_1377"
    op_type: "Mul"
  }
  node {
    input: "split_7_split_0"
    input: "mul_1360"
    output: "mul_1364"
    name: "node_Mul_1378"
    op_type: "Mul"
  }
  node {
    input: "mul_1364"
    input: "encoder.encoders.3.feed_forward_out.net.2.weight_Q4"
    input: "encoder.encoders.3.feed_forward_out.net.2.weight_scales"
    output: "val_838"
    name: "node_MatMul_1381_Q4"
    op_type: "MatMulNBits"
    attribute {
      name: "K"
      i: 1536
      type: INT
    }
    attribute {
      name: "N"
      i: 1024
      type: INT
    }
    attribute {
      name: "bits"
      i: 4
      type: INT
    }
    attribute {
      name: "block_size"
      i: 32
      type: INT
    }
    domain: "com.microsoft"
  }
  node {
    input: "val_838"
    input: "encoder.encoders.3.feed_forward_out.net.2.bias"
    output: "linear_32"
    name: "node_Add_1382"
    op_type: "Add"
  }
  node {
    input: "linear_32"
    input: "scalar_tensor_default_12"
    output: "mul_1377"
    name: "node_Mul_1385"
    op_type: "Mul"
  }
  node {
    input: "add_1851"
    input: "mul_1377"
    input: "encoder.encoders.3.layer_norm.weight"
    input: "encoder.encoders.3.layer_norm.bias"
    output: "layer_norm_19"
    name: "SkipLayerNorm_15"
    op_type: "SkipLayerNormalization"
    attribute {
      name: "epsilon"
      f: 1e-05
      type: FLOAT
    }
    domain: "com.microsoft"
  }
  node {
    input: "layer_norm_19"
    input: "encoder.encoders.4.feed_forward_in.layer_norm.weight"
    input: "encoder.encoders.4.feed_forward_in.layer_norm.bias"
    output: "layer_norm_20"
    name: "n0_91"
    op_type: "LayerNormalization"
    attribute {
      name: "axis"
      i: -1
      type: INT
    }
    attribute {
      name: "epsilon"
      f: 1e-05
      type: FLOAT
    }
  }
  node {
    input: "layer_norm_20"
    input: "encoder.encoders.4.feed_forward_in.net.0.linear.weight_Q4"
    input: "encoder.encoders.4.feed_forward_in.net.0.linear.weight_scales"
    output: "val_840"
    name: "node_MatMul_1390_Q4"
    op_type: "MatMulNBits"
    attribute {
      name: "K"
      i: 1024
      type: INT
    }
    attribute {
      name: "N"
      i: 3072
      type: INT
    }
    attribute {
      name: "bits"
      i: 4
      type: INT
    }
    attribute {
      name: "block_size"
      i: 32
      type: INT
    }
    domain: "com.microsoft"
  }
  node {
    input: "val_840"
    input: "encoder.encoders.4.feed_forward_in.net.0.linear.bias"
    output: "linear_33"
    name: "node_Add_1391"
    op_type: "Add"
  }
  node {
    input: "linear_33"
    output: "split_8_split_0"
    output: "split_8_split_1"
    name: "node_Split_6356"
    op_type: "Split"
    attribute {
      name: "axis"
      i: 2
      type: INT
    }
    attribute {
      name: "num_outputs"
      i: 2
      type: INT
    }
  }
  node {
    input: "split_8_split_1"
    output: "sigmoid_16"
    name: "node_Sigmoid_1395"
    op_type: "Sigmoid"
  }
  node {
    input: "split_8_split_1"
    input: "sigmoid_16"
    output: "mul_1402"
    name: "node_Mul_1396"
    op_type: "Mul"
  }
  node {
    input: "split_8_split_0"
    input: "mul_1402"
    output: "mul_1406"
    name: "node_Mul_1397"
    op_type: "Mul"
  }
  node {
    input: "mul_1406"
    input: "encoder.encoders.4.feed_forward_in.net.2.weight_Q4"
    input: "encoder.encoders.4.feed_forward_in.net.2.weight_scales"
    output: "val_842"
    name: "node_MatMul_1400_Q4"
    op_type: "MatMulNBits"
    attribute {
      name: "K"
      i: 1536
      type: INT
    }
    attribute {
      name: "N"
      i: 1024
      type: INT
    }
    attribute {
      name: "bits"
      i: 4
      type: INT
    }
    attribute {
      name: "block_size"
      i: 32
      type: INT
    }
    domain: "com.microsoft"
  }
  node {
    input: "val_842"
    input: "encoder.encoders.4.feed_forward_in.net.2.bias"
    output: "linear_34"
    name: "node_Add_1401"
    op_type: "Add"
  }
  node {
    input: "linear_34"
    input: "scalar_tensor_default_13"
    output: "mul_1419"
    name: "node_Mul_1404"
    op_type: "Mul"
  }
  node {
    input: "layer_norm_19"
    input: "mul_1419"
    input: "encoder.encoders.4.layer_norm_att.weight"
    input: "encoder.encoders.4.layer_norm_att.bias"
    output: "layer_norm_21"
    output: ""
    output: ""
    output: "add_1953"
    name: "SkipLayerNorm_16"
    op_type: "SkipLayerNormalization"
    attribute {
      name: "epsilon"
      f: 1e-05
      type: FLOAT
    }
    domain: "com.microsoft"
  }
  node {
    input: "layer_norm_21"
    input: "Attention_4_qkv_weight"
    input: "Attention_4_qkv_bias"
    input: "_to_copy_15"
    input: ""
    input: "unsqueeze_18"
    output: "view_27"
    name: "Attention_4"
    op_type: "Attention"
    attribute {
      name: "num_heads"
      i: 16
      type: INT
    }
    domain: "com.microsoft"
  }
  node {
    input: "view_27"
    input: "encoder.encoders.4.self_attn.linear_out.weight_Q4"
    input: "encoder.encoders.4.self_attn.linear_out.weight_scales"
    output: "val_876"
    name: "node_MatMul_1463_Q4"
    op_type: "MatMulNBits"
    attribute {
      name: "K"
      i: 1024
      type: INT
    }
    attribute {
      name: "N"
      i: 1024
      type: INT
    }
    attribute {
      name: "bits"
      i: 4
      type: INT
    }
    attribute {
      name: "block_size"
      i: 32
      type: INT
    }
    domain: "com.microsoft"
  }
  node {
    input: "val_876"
    input: "add_1953"
    input: "encoder.encoders.4.conv.layer_norm.weight"
    input: "encoder.encoders.4.conv.layer_norm.bias"
    input: "encoder.encoders.4.self_attn.linear_out.bias"
    output: "layer_norm_22"
    output: ""
    output: ""
    output: "add_2073"
    name: "SkipLayerNorm_AddBias_4"
    op_type: "SkipLayerNormalization"
    attribute {
      name: "epsilon"
      f: 1e-05
      type: FLOAT
    }
    domain: "com.microsoft"
  }
  node {
    input: "layer_norm_22"
    output: "permute_17"
    name: "node_Transpose_1467"
    op_type: "Transpose"
    attribute {
      name: "perm"
      ints: 0
      ints: 2
      ints: 1
      type: INTS
    }
  }
  node {
    input: "permute_17"
    input: "encoder.encoders.4.conv.glu.ext_pw_conv_1d.weight"
    input: "encoder.encoders.4.conv.glu.ext_pw_conv_1d.bias"
    output: "conv1d_16"
    name: "node_Conv_1468"
    op_type: "Conv"
    attribute {
      name: "auto_pad"
      s: "NOTSET"
      type: STRING
    }
    attribute {
      name: "dilations"
      ints: 1
      type: INTS
    }
    attribute {
      name: "group"
      i: 1
      type: INT
    }
    attribute {
      name: "pads"
      ints: 0
      ints: 0
      type: INTS
    }
    attribute {
      name: "strides"
      ints: 1
      type: INTS
    }
  }
  node {
    input: "conv1d_16"
    input: "val_889"
    input: "val_892"
    input: "val_895"
    input: "val_896"
    output: "slice_50"
    name: "node_Slice_1490"
    op_type: "Slice"
  }
  node {
    input: "conv1d_16"
    input: "val_919"
    input: "val_922"
    input: "val_925"
    input: "val_926"
    output: "slice_53"
    name: "node_Slice_1524"
    op_type: "Slice"
  }
  node {
    input: "slice_50"
    input: "encoder.encoders.4.conv.glu.b1"
    output: "add_2102"
    name: "node_Add_1502"
    op_type: "Add"
  }
  node {
    input: "slice_53"
    input: "encoder.encoders.4.conv.glu.b2"
    output: "add_2119"
    name: "node_Add_1536"
    op_type: "Add"
  }
  node {
    input: "add_2119"
    output: "sigmoid_17"
    name: "node_Sigmoid_1537"
    op_type: "Sigmoid"
  }
  node {
    input: "add_2119"
    input: "sigmoid_17"
    output: "mul_1550"
    name: "node_Mul_1538"
    op_type: "Mul"
  }
  node {
    input: "add_2102"
    input: "mul_1550"
    output: "mul_1554"
    name: "node_Mul_1539"
    op_type: "Mul"
  }
  node {
    input: "mul_1554"
    input: "encoder.encoders.4.conv.dw_sep_conv_1d.dw_conv.weight"
    input: "encoder.encoders.4.conv.dw_sep_conv_1d.dw_conv.bias"
    output: "conv1d_17"
    name: "node_Conv_1542"
    op_type: "Conv"
    attribute {
      name: "auto_pad"
      s: "NOTSET"
      type: STRING
    }
    attribute {
      name: "dilations"
      ints: 1
      type: INTS
    }
    attribute {
      name: "group"
      i: 1024
      type: INT
    }
    attribute {
      name: "pads"
      ints: 2
      ints: 2
      type: INTS
    }
    attribute {
      name: "strides"
      ints: 1
      type: INTS
    }
  }
  node {
    input: "conv1d_17"
    input: "encoder.encoders.4.conv.dw_sep_conv_1d.pw_conv.weight"
    input: "encoder.encoders.4.conv.dw_sep_conv_1d.pw_conv.bias"
    output: "conv1d_18"
    name: "node_Conv_1543"
    op_type: "Conv"
    attribute {
      name: "auto_pad"
      s: "NOTSET"
      type: STRING
    }
    attribute {
      name: "dilations"
      ints: 1
      type: INTS
    }
    attribute {
      name: "group"
      i: 1
      type: INT
    }
    attribute {
      name: "pads"
      ints: 0
      ints: 0
      type: INTS
    }
    attribute {
      name: "strides"
      ints: 1
      type: INTS
    }
  }
  node {
    input: "conv1d_18"
    input: "val_959"
    input: "val_962"
    input: "val_965"
    input: "val_966"
    output: "slice_57"
    name: "node_Slice_1576"
    op_type: "Slice"
  }
  node {
    input: "slice_57"
    output: "sigmoid_18"
    name: "node_Sigmoid_1577"
    op_type: "Sigmoid"
  }
  node {
    input: "slice_57"
    input: "sigmoid_18"
    output: "mul_1582"
    name: "node_Mul_1578"
    op_type: "Mul"
  }
  node {
    input: "mul_1582"
    input: "encoder.encoders.4.conv.ext_pw_conv_1d.weight"
    input: "encoder.encoders.4.conv.ext_pw_conv_1d.bias"
    output: "conv1d_19"
    name: "node_Conv_1579"
    op_type: "Conv"
    attribute {
      name: "auto_pad"
      s: "NOTSET"
      type: STRING
    }
    attribute {
      name: "dilations"
      ints: 1
      type: INTS
    }
    attribute {
      name: "group"
      i: 1
      type: INT
    }
    attribute {
      name: "pads"
      ints: 0
      ints: 0
      type: INTS
    }
    attribute {
      name: "strides"
      ints: 1
      type: INTS
    }
  }
  node {
    input: "conv1d_19"
    output: "permute_20"
    name: "node_Transpose_1580"
    op_type: "Transpose"
    attribute {
      name: "perm"
      ints: 0
      ints: 2
      ints: 1
      type: INTS
    }
  }
  node {
    input: "add_2073"
    input: "permute_20"
    input: "encoder.encoders.4.feed_forward_out.layer_norm.weight"
    input: "encoder.encoders.4.feed_forward_out.layer_norm.bias"
    output: "layer_norm_23"
    output: ""
    output: ""
    output: "add_2184"
    name: "SkipLayerNorm_18"
    op_type: "SkipLayerNormalization"
    attribute {
      name: "epsilon"
      f: 1e-05
      type: FLOAT
    }
    domain: "com.microsoft"
  }
  node {
    input: "layer_norm_23"
    input: "encoder.encoders.4.feed_forward_out.net.0.linear.weight_Q4"
    input: "encoder.encoders.4.feed_forward_out.net.0.linear.weight_scales"
    output: "val_968"
    name: "node_MatMul_1585_Q4"
    op_type: "MatMulNBits"
    attribute {
      name: "K"
      i: 1024
      type: INT
    }
    attribute {
      name: "N"
      i: 3072
      type: INT
    }
    attribute {
      name: "bits"
      i: 4
      type: INT
    }
    attribute {
      name: "block_size"
      i: 32
      type: INT
    }
    domain: "com.microsoft"
  }
  node {
    input: "val_968"
    input: "encoder.encoders.4.feed_forward_out.net.0.linear.bias"
    output: "linear_39"
    name: "node_Add_1586"
    op_type: "Add"
  }
  node {
    input: "linear_39"
    output: "split_9_split_0"
    output: "split_9_split_1"
    name: "node_Split_6452"
    op_type: "Split"
    attribute {
      name: "axis"
      i: 2
      type: INT
    }
    attribute {
      name: "num_outputs"
      i: 2
      type: INT
    }
  }
  node {
    input: "split_9_split_1"
    output: "sigmoid_19"
    name: "node_Sigmoid_1590"
    op_type: "Sigmoid"
  }
  node {
    input: "split_9_split_1"
    input: "sigmoid_19"
    output: "mul_1613"
    name: "node_Mul_1591"
    op_type: "Mul"
  }
  node {
    input: "split_9_split_0"
    input: "mul_1613"
    output: "mul_1617"
    name: "node_Mul_1592"
    op_type: "Mul"
  }
  node {
    input: "mul_1617"
    input: "encoder.encoders.4.feed_forward_out.net.2.weight_Q4"
    input: "encoder.encoders.4.feed_forward_out.net.2.weight_scales"
    output: "val_970"
    name: "node_MatMul_1595_Q4"
    op_type: "MatMulNBits"
    attribute {
      name: "K"
      i: 1536
      type: INT
    }
    attribute {
      name: "N"
      i: 1024
      type: INT
    }
    attribute {
      name: "bits"
      i: 4
      type: INT
    }
    attribute {
      name: "block_size"
      i: 32
      type: INT
    }
    domain: "com.microsoft"
  }
  node {
    input: "val_970"
    input: "encoder.encoders.4.feed_forward_out.net.2.bias"
    output: "linear_40"
    name: "node_Add_1596"
    op_type: "Add"
  }
  node {
    input: "linear_40"
    input: "scalar_tensor_default_15"
    output: "mul_1630"
    name: "node_Mul_1599"
    op_type: "Mul"
  }
  node {
    input: "add_2184"
    input: "mul_1630"
    input: "encoder.encoders.4.layer_norm.weight"
    input: "encoder.encoders.4.layer_norm.bias"
    output: "layer_norm_24"
    name: "SkipLayerNorm_19"
    op_type: "SkipLayerNormalization"
    attribute {
      name: "epsilon"
      f: 1e-05
      type: FLOAT
    }
    domain: "com.microsoft"
  }
  node {
    input: "layer_norm_24"
    input: "encoder.encoders.5.feed_forward_in.layer_norm.weight"
    input: "encoder.encoders.5.feed_forward_in.layer_norm.bias"
    output: "layer_norm_25"
    name: "n0_104"
    op_type: "LayerNormalization"
    attribute {
      name: "axis"
      i: -1
      type: INT
    }
    attribute {
      name: "epsilon"
      f: 1e-05
      type: FLOAT
    }
  }
  node {
    input: "layer_norm_25"
    input: "encoder.encoders.5.feed_forward_in.net.0.linear.weight_Q4"
    input: "encoder.encoders.5.feed_forward_in.net.0.linear.weight_scales"
    output: "val_972"
    name: "node_MatMul_1604_Q4"
    op_type: "MatMulNBits"
    attribute {
      name: "K"
      i: 1024
      type: INT
    }
    attribute {
      name: "N"
      i: 3072
      type: INT
    }
    attribute {
      name: "bits"
      i: 4
      type: INT
    }
    attribute {
      name: "block_size"
      i: 32
      type: INT
    }
    domain: "com.microsoft"
  }
  node {
    input: "val_972"
    input: "encoder.encoders.5.feed_forward_in.net.0.linear.bias"
    output: "linear_41"
    name: "node_Add_1605"
    op_type: "Add"
  }
  node {
    input: "linear_41"
    output: "split_10_split_0"
    output: "split_10_split_1"
    name: "node_Split_6457"
    op_type: "Split"
    attribute {
      name: "axis"
      i: 2
      type: INT
    }
    attribute {
      name: "num_outputs"
      i: 2
      type: INT
    }
  }
  node {
    input: "split_10_split_1"
    output: "sigmoid_20"
    name: "node_Sigmoid_1609"
    op_type: "Sigmoid"
  }
  node {
    input: "split_10_split_1"
    input: "sigmoid_20"
    output: "mul_1655"
    name: "node_Mul_1610"
    op_type: "Mul"
  }
  node {
    input: "split_10_split_0"
    input: "mul_1655"
    output: "mul_1659"
    name: "node_Mul_1611"
    op_type: "Mul"
  }
  node {
    input: "mul_1659"
    input: "encoder.encoders.5.feed_forward_in.net.2.weight_Q4"
    input: "encoder.encoders.5.feed_forward_in.net.2.weight_scales"
    output: "val_974"
    name: "node_MatMul_1614_Q4"
    op_type: "MatMulNBits"
    attribute {
      name: "K"
      i: 1536
      type: INT
    }
    attribute {
      name: "N"
      i: 1024
      type: INT
    }
    attribute {
      name: "bits"
      i: 4
      type: INT
    }
    attribute {
      name: "block_size"
      i: 32
      type: INT
    }
    domain: "com.microsoft"
  }
  node {
    input: "val_974"
    input: "encoder.encoders.5.feed_forward_in.net.2.bias"
    output: "linear_42"
    name: "node_Add_1615"
    op_type: "Add"
  }
  node {
    input: "linear_42"
    input: "scalar_tensor_default_16"
    output: "mul_1672"
    name: "node_Mul_1618"
    op_type: "Mul"
  }
  node {
    input: "layer_norm_24"
    input: "mul_1672"
    input: "encoder.encoders.5.layer_norm_att.weight"
    input: "encoder.encoders.5.layer_norm_att.bias"
    output: "layer_norm_26"
    output: ""
    output: ""
    output: "add_2286"
    name: "SkipLayerNorm_20"
    op_type: "SkipLayerNormalization"
    attribute {
      name: "epsilon"
      f: 1e-05
      type: FLOAT
    }
    domain: "com.microsoft"
  }
  node {
    input: "layer_norm_26"
    input: "Attention_5_qkv_weight"
    input: "Attention_5_qkv_bias"
    input: "_to_copy_15"
    input: ""
    input: "unsqueeze_18"
    output: "view_31"
    name: "Attention_5"
    op_type: "Attention"
    attribute {
      name: "num_heads"
      i: 16
      type: INT
    }
    domain: "com.microsoft"
  }
  node {
    input: "view_31"
    input: "encoder.encoders.5.self_attn.linear_out.weight_Q4"
    input: "encoder.encoders.5.self_attn.linear_out.weight_scales"
    output: "val_1008"
    name: "node_MatMul_1677_Q4"
    op_type: "MatMulNBits"
    attribute {
      name: "K"
      i: 1024
      type: INT
    }
    attribute {
      name: "N"
      i: 1024
      type: INT
    }
    attribute {
      name: "bits"
      i: 4
      type: INT
    }
    attribute {
      name: "block_size"
      i: 32
      type: INT
    }
    domain: "com.microsoft"
  }
  node {
    input: "val_1008"
    input: "add_2286"
    input: "encoder.encoders.5.conv.layer_norm.weight"
    input: "encoder.encoders.5.conv.layer_norm.bias"
    input: "encoder.encoders.5.self_attn.linear_out.bias"
    output: "layer_norm_27"
    output: ""
    output: ""
    output: "add_2406"
    name: "SkipLayerNorm_AddBias_5"
    op_type: "SkipLayerNormalization"
    attribute {
      name: "epsilon"
      f: 1e-05
      type: FLOAT
    }
    domain: "com.microsoft"
  }
  node {
    input: "layer_norm_27"
    output: "permute_21"
    name: "node_Transpose_1681"
    op_type: "Transpose"
    attribute {
      name: "perm"
      ints: 0
      ints: 2
      ints: 1
      type: INTS
    }
  }
  node {
    input: "permute_21"
    input: "encoder.encoders.5.conv.glu.ext_pw_conv_1d.weight"
    input: "encoder.encoders.5.conv.glu.ext_pw_conv_1d.bias"
    output: "conv1d_20"
    name: "node_Conv_1682"
    op_type: "Conv"
    attribute {
      name: "auto_pad"
      s: "NOTSET"
      type: STRING
    }
    attribute {
      name: "dilations"
      ints: 1
      type: INTS
    }
    attribute {
      name: "group"
      i: 1
      type: INT
    }
    attribute {
      name: "pads"
      ints: 0
      ints: 0
      type: INTS
    }
    attribute {
      name: "strides"
      ints: 1
      type: INTS
    }
  }
  node {
    input: "conv1d_20"
    input: "val_1021"
    input: "val_1024"
    input: "val_1027"
    input: "val_1028"
    output: "slice_59"
    name: "node_Slice_1704"
    op_type: "Slice"
  }
  node {
    input: "conv1d_20"
    input: "val_1051"
    input: "val_1054"
    input: "val_1057"
    input: "val_1058"
    output: "slice_62"
    name: "node_Slice_1738"
    op_type: "Slice"
  }
  node {
    input: "slice_59"
    input: "encoder.encoders.5.conv.glu.b1"
    output: "add_2435"
    name: "node_Add_1716"
    op_type: "Add"
  }
  node {
    input: "slice_62"
    input: "encoder.encoders.5.conv.glu.b2"
    output: "add_2452"
    name: "node_Add_1750"
    op_type: "Add"
  }
  node {
    input: "add_2452"
    output: "sigmoid_21"
    name: "node_Sigmoid_1751"
    op_type: "Sigmoid"
  }
  node {
    input: "add_2452"
    input: "sigmoid_21"
    output: "mul_1803"
    name: "node_Mul_1752"
    op_type: "Mul"
  }
  node {
    input: "add_2435"
    input: "mul_1803"
    output: "mul_1807"
    name: "node_Mul_1753"
    op_type: "Mul"
  }
  node {
    input: "mul_1807"
    input: "encoder.encoders.5.conv.dw_sep_conv_1d.dw_conv.weight"
    input: "encoder.encoders.5.conv.dw_sep_conv_1d.dw_conv.bias"
    output: "conv1d_21"
    name: "node_Conv_1756"
    op_type: "Conv"
    attribute {
      name: "auto_pad"
      s: "NOTSET"
      type: STRING
    }
    attribute {
      name: "dilations"
      ints: 1
      type: INTS
    }
    attribute {
      name: "group"
      i: 1024
      type: INT
    }
    attribute {
      name: "pads"
      ints: 2
      ints: 2
      type: INTS
    }
    attribute {
      name: "strides"
      ints: 1
      type: INTS
    }
  }
  node {
    input: "conv1d_21"
    input: "encoder.encoders.5.conv.dw_sep_conv_1d.pw_conv.weight"
    input: "encoder.encoders.5.conv.dw_sep_conv_1d.pw_conv.bias"
    output: "conv1d_22"
    name: "node_Conv_1757"
    op_type: "Conv"
    attribute {
      name: "auto_pad"
      s: "NOTSET"
      type: STRING
    }
    attribute {
      name: "dilations"
      ints: 1
      type: INTS
    }
    attribute {
      name: "group"
      i: 1
      type: INT
    }
    attribute {
      name: "pads"
      ints: 0
      ints: 0
      type: INTS
    }
    attribute {
      name: "strides"
      ints: 1
      type: INTS
    }
  }
  node {
    input: "conv1d_22"
    input: "val_1091"
    input: "val_1094"
    input: "val_1097"
    input: "val_1098"
    output: "slice_66"
    name: "node_Slice_1790"
    op_type: "Slice"
  }
  node {
    input: "slice_66"
    output: "sigmoid_22"
    name: "node_Sigmoid_1791"
    op_type: "Sigmoid"
  }
  node {
    input: "slice_66"
    input: "sigmoid_22"
    output: "mul_1835"
    name: "node_Mul_1792"
    op_type: "Mul"
  }
  node {
    input: "mul_1835"
    input: "encoder.encoders.5.conv.ext_pw_conv_1d.weight"
    input: "encoder.encoders.5.conv.ext_pw_conv_1d.bias"
    output: "conv1d_23"
    name: "node_Conv_1793"
    op_type: "Conv"
    attribute {
      name: "auto_pad"
      s: "NOTSET"
      type: STRING
    }
    attribute {
      name: "dilations"
      ints: 1
      type: INTS
    }
    attribute {
      name: "group"
      i: 1
      type: INT
    }
    attribute {
      name: "pads"
      ints: 0
      ints: 0
      type: INTS
    }
    attribute {
      name: "strides"
      ints: 1
      type: INTS
    }
  }
  node {
    input: "conv1d_23"
    output: "permute_24"
    name: "node_Transpose_1794"
    op_type: "Transpose"
    attribute {
      name: "perm"
      ints: 0
      ints: 2
      ints: 1
      type: INTS
    }
  }
  node {
    input: "add_2406"
    input: "permute_24"
    input: "encoder.encoders.5.feed_forward_out.layer_norm.weight"
    input: "encoder.encoders.5.feed_forward_out.layer_norm.bias"
    output: "layer_norm_28"
    output: ""
    output: ""
    output: "add_2517"
    name: "SkipLayerNorm_22"
    op_type: "SkipLayerNormalization"
    attribute {
      name: "epsilon"
      f: 1e-05
      type: FLOAT
    }
    domain: "com.microsoft"
  }
  node {
    input: "layer_norm_28"
    input: "encoder.encoders.5.feed_forward_out.net.0.linear.weight_Q4"
    input: "encoder.encoders.5.feed_forward_out.net.0.linear.weight_scales"
    output: "val_1100"
    name: "node_MatMul_1799_Q4"
    op_type: "MatMulNBits"
    attribute {
      name: "K"
      i: 1024
      type: INT
    }
    attribute {
      name: "N"
      i: 3072
      type: INT
    }
    attribute {
      name: "bits"
      i: 4
      type: INT
    }
    attribute {
      name: "block_size"
      i: 32
      type: INT
    }
    domain: "com.microsoft"
  }
  node {
    input: "val_1100"
    input: "encoder.encoders.5.feed_forward_out.net.0.linear.bias"
    output: "linear_47"
    name: "node_Add_1800"
    op_type: "Add"
  }
  node {
    input: "linear_47"
    output: "split_11_split_0"
    output: "split_11_split_1"
    name: "node_Split_6553"
    op_type: "Split"
    attribute {
      name: "axis"
      i: 2
      type: INT
    }
    attribute {
      name: "num_outputs"
      i: 2
      type: INT
    }
  }
  node {
    input: "split_11_split_1"
    output: "sigmoid_23"
    name: "node_Sigmoid_1804"
    op_type: "Sigmoid"
  }
  node {
    input: "split_11_split_1"
    input: "sigmoid_23"
    output: "mul_1866"
    name: "node_Mul_1805"
    op_type: "Mul"
  }
  node {
    input: "split_11_split_0"
    input: "mul_1866"
    output: "mul_1870"
    name: "node_Mul_1806"
    op_type: "Mul"
  }
  node {
    input: "mul_1870"
    input: "encoder.encoders.5.feed_forward_out.net.2.weight_Q4"
    input: "encoder.encoders.5.feed_forward_out.net.2.weight_scales"
    output: "val_1102"
    name: "node_MatMul_1809_Q4"
    op_type: "MatMulNBits"
    attribute {
      name: "K"
      i: 1536
      type: INT
    }
    attribute {
      name: "N"
      i: 1024
      type: INT
    }
    attribute {
      name: "bits"
      i: 4
      type: INT
    }
    attribute {
      name: "block_size"
      i: 32
      type: INT
    }
    domain: "com.microsoft"
  }
  node {
    input: "val_1102"
    input: "encoder.encoders.5.feed_forward_out.net.2.bias"
    output: "linear_48"
    name: "node_Add_1810"
    op_type: "Add"
  }
  node {
    input: "linear_48"
    input: "scalar_tensor_default_18"
    output: "mul_1883"
    name: "node_Mul_1813"
    op_type: "Mul"
  }
  node {
    input: "add_2517"
    input: "mul_1883"
    input: "encoder.encoders.5.layer_norm.weight"
    input: "encoder.encoders.5.layer_norm.bias"
    output: "layer_norm_29"
    name: "SkipLayerNorm_23"
    op_type: "SkipLayerNormalization"
    attribute {
      name: "epsilon"
      f: 1e-05
      type: FLOAT
    }
    domain: "com.microsoft"
  }
  node {
    input: "layer_norm_29"
    input: "encoder.encoders.6.feed_forward_in.layer_norm.weight"
    input: "encoder.encoders.6.feed_forward_in.layer_norm.bias"
    output: "layer_norm_30"
    name: "n0_117"
    op_type: "LayerNormalization"
    attribute {
      name: "axis"
      i: -1
      type: INT
    }
    attribute {
      name: "epsilon"
      f: 1e-05
      type: FLOAT
    }
  }
  node {
    input: "layer_norm_30"
    input: "encoder.encoders.6.feed_forward_in.net.0.linear.weight_Q4"
    input: "encoder.encoders.6.feed_forward_in.net.0.linear.weight_scales"
    output: "val_1104"
    name: "node_MatMul_1818_Q4"
    op_type: "MatMulNBits"
    attribute {
      name: "K"
      i: 1024
      type: INT
    }
    attribute {
      name: "N"
      i: 3072
      type: INT
    }
    attribute {
      name: "bits"
      i: 4
      type: INT
    }
    attribute {
      name: "block_size"
      i: 32
      type: INT
    }
    domain: "com.microsoft"
  }
  node {
    input: "val_1104"
    input: "encoder.encoders.6.feed_forward_in.net.0.linear.bias"
    output: "linear_49"
    name: "node_Add_1819"
    op_type: "Add"
  }
  node {
    input: "linear_49"
    output: "split_12_split_0"
    output: "split_12_split_1"
    name: "node_Split_6558"
    op_type: "Split"
    attribute {
      name: "axis"
      i: 2
      type: INT
    }
    attribute {
      name: "num_outputs"
      i: 2
      type: INT
    }
  }
  node {
    input: "split_12_split_1"
    output: "sigmoid_24"
    name: "node_Sigmoid_1823"
    op_type: "Sigmoid"
  }
  node {
    input: "split_12_split_1"
    input: "sigmoid_24"
    output: "mul_1908"
    name: "node_Mul_1824"
    op_type: "Mul"
  }
  node {
    input: "split_12_split_0"
    input: "mul_1908"
    output: "mul_1912"
    name: "node_Mul_1825"
    op_type: "Mul"
  }
  node {
    input: "mul_1912"
    input: "encoder.encoders.6.feed_forward_in.net.2.weight_Q4"
    input: "encoder.encoders.6.feed_forward_in.net.2.weight_scales"
    output: "val_1106"
    name: "node_MatMul_1828_Q4"
    op_type: "MatMulNBits"
    attribute {
      name: "K"
      i: 1536
      type: INT
    }
    attribute {
      name: "N"
      i: 1024
      type: INT
    }
    attribute {
      name: "bits"
      i: 4
      type: INT
    }
    attribute {
      name: "block_size"
      i: 32
      type: INT
    }
    domain: "com.microsoft"
  }
  node {
    input: "val_1106"
    input: "encoder.encoders.6.feed_forward_in.net.2.bias"
    output: "linear_50"
    name: "node_Add_1829"
    op_type: "Add"
  }
  node {
    input: "linear_50"
    input: "scalar_tensor_default_19"
    output: "mul_1925"
    name: "node_Mul_1832"
    op_type: "Mul"
  }
  node {
    input: "layer_norm_29"
    input: "mul_1925"
    input: "encoder.encoders.6.layer_norm_att.weight"
    input: "encoder.encoders.6.layer_norm_att.bias"
    output: "layer_norm_31"
    output: ""
    output: ""
    output: "add_2619"
    name: "SkipLayerNorm_24"
    op_type: "SkipLayerNormalization"
    attribute {
      name: "epsilon"
      f: 1e-05
      type: FLOAT
    }
    domain: "com.microsoft"
  }
  node {
    input: "layer_norm_31"
    input: "Attention_6_qkv_weight"
    input: "Attention_6_qkv_bias"
    input: "_to_copy_15"
    input: ""
    input: "unsqueeze_18"
    output: "view_35"
    name: "Attention_6"
    op_type: "Attention"
    attribute {
      name: "num_heads"
      i: 16
      type: INT
    }
    domain: "com.microsoft"
  }
  node {
    input: "view_35"
    input: "encoder.encoders.6.self_attn.linear_out.weight_Q4"
    input: "encoder.encoders.6.self_attn.linear_out.weight_scales"
    output: "val_1140"
    name: "node_MatMul_1891_Q4"
    op_type: "MatMulNBits"
    attribute {
      name: "K"
      i: 1024
      type: INT
    }
    attribute {
      name: "N"
      i: 1024
      type: INT
    }
    attribute {
      name: "bits"
      i: 4
      type: INT
    }
    attribute {
      name: "block_size"
      i: 32
      type: INT
    }
    domain: "com.microsoft"
  }
  node {
    input: "val_1140"
    input: "add_2619"
    input: "encoder.encoders.6.conv.layer_norm.weight"
…
        }
      }
    }
  }
  value_info {
    name: "val_3247"
    type {
      tensor_type {
        elem_type: 7
        shape {
          dim {
            dim_value: 1
          }
        }
      }
    }
  }
  value_info {
    name: "val_3248"
    type {
      tensor_type {
        elem_type: 7
        shape {
          dim {
            dim_value: 1
          }
        }
      }
    }
  }
  value_info {
    name: "val_3249"
    type {
      tensor_type {
        elem_type: 7
        shape {
          dim {
            dim_value: 3
          }
        }
      }
    }
  }
  value_info {
    name: "view_99"
    type {
      tensor_type {
        elem_type: 10
        shape {
          dim {
            dim_param: "s0"
          }
          dim {
            dim_param: "CeilToInt(IntTrueDiv(s1, 8))"
          }
          dim {
            dim_value: 1024
          }
        }
      }
    }
  }
  value_info {
    name: "val_3252"
    type {
      tensor_type {
        elem_type: 10
        shape {
          dim {
            dim_param: "s0"
          }
          dim {
            dim_param: "CeilToInt(IntTrueDiv(s1, 8))"
          }
          dim {
            dim_value: 1024
          }
        }
      }
    }
  }
  value_info {
    name: "linear_182"
    type {
      tensor_type {
        elem_type: 10
        shape {
          dim {
            dim_param: "s0"
          }
          dim {
            dim_param: "CeilToInt(IntTrueDiv(s1, 8))"
          }
          dim {
            dim_value: 1024
          }
        }
      }
    }
  }
  value_info {
    name: "add_8067"
    type {
      tensor_type {
        elem_type: 10
        shape {
          dim {
            dim_param: "s0"
          }
          dim {
            dim_param: "(((s1 - 1)//8)) + 1"
          }
          dim {
            dim_value: 1024
          }
        }
      }
    }
  }
  value_info {
    name: "layer_norm_112"
    type {
      tensor_type {
        elem_type: 10
        shape {
          dim {
            dim_param: "s0"
          }
          dim {
            dim_param: "(((s1 - 1)//8)) + 1"
          }
          dim {
            dim_value: 1024
          }
        }
      }
    }
  }
  value_info {
    name: "permute_89"
    type {
      tensor_type {
        elem_type: 10
        shape {
          dim {
            dim_param: "s0"
          }
          dim {
            dim_value: 1024
          }
          dim {
            dim_param: "(((s1 - 1)//8)) + 1"
          }
        }
      }
    }
  }
  value_info {
    name: "conv1d_88"
    type {
      tensor_type {
        elem_type: 10
        shape {
          dim {
            dim_param: "s0"
          }
          dim {
            dim_value: 2048
          }
          dim {
            dim_param: "(((s1 - 1)//8)) + 1"
          }
        }
      }
    }
  }
  value_info {
    name: "val_3265"
    type {
      tensor_type {
        elem_type: 7
        shape {
          dim {
            dim_value: 1
          }
        }
      }
    }
  }
  value_info {
    name: "val_3268"
    type {
      tensor_type {
        elem_type: 7
        shape {
          dim {
            dim_value: 1
          }
        }
      }
    }
  }
  value_info {
    name: "val_3271"
    type {
      tensor_type {
        elem_type: 7
        shape {
          dim {
            dim_value: 1
          }
        }
      }
    }
  }
  value_info {
    name: "val_3272"
    type {
      tensor_type {
        elem_type: 7
        shape {
          dim {
            dim_value: 1
          }
        }
      }
    }
  }
  value_info {
    name: "slice_212"
    type {
      tensor_type {
        elem_type: 10
        shape {
          dim {
            dim_param: "s0"
          }
          dim {
            dim_value: 1024
          }
          dim {
            dim_param: "(((s1 - 1)//8)) + 1"
          }
        }
      }
    }
  }
  value_info {
    name: "add_8096"
    type {
      tensor_type {
        elem_type: 10
        shape {
          dim {
            dim_param: "s0"
          }
          dim {
            dim_value: 1024
          }
          dim {
            dim_param: "(((s1 - 1)//8)) + 1"
          }
        }
      }
    }
  }
  value_info {
    name: "val_3295"
    type {
      tensor_type {
        elem_type: 7
        shape {
          dim {
            dim_value: 1
          }
        }
      }
    }
  }
  value_info {
    name: "val_3298"
    type {
      tensor_type {
        elem_type: 7
        shape {
          dim {
            dim_value: 1
          }
        }
      }
    }
  }
  value_info {
    name: "val_3301"
    type {
      tensor_type {
        elem_type: 7
        shape {
          dim {
            dim_value: 1
          }
        }
      }
    }
  }
  value_info {
    name: "val_3302"
    type {
      tensor_type {
        elem_type: 7
        shape {
          dim {
            dim_value: 1
          }
        }
      }
    }
  }
  value_info {
    name: "slice_215"
    type {
      tensor_type {
        elem_type: 10
        shape {
          dim {
            dim_param: "s0"
          }
          dim {
            dim_value: 1024
          }
          dim {
            dim_param: "(((s1 - 1)//8)) + 1"
          }
        }
      }
    }
  }
  value_info {
    name: "add_8113"
    type {
      tensor_type {
        elem_type: 10
        shape {
          dim {
            dim_param: "s0"
          }
          dim {
            dim_value: 1024
          }
          dim {
            dim_param: "(((s1 - 1)//8)) + 1"
          }
        }
      }
    }
  }
  value_info {
    name: "sigmoid_89"
    type {
      tensor_type {
        elem_type: 10
        shape {
          dim {
            dim_param: "s0"
          }
          dim {
            dim_value: 1024
          }
          dim {
            dim_param: "(((s1 - 1)//8)) + 1"
          }
        }
      }
    }
  }
  value_info {
    name: "mul_6104"
    type {
      tensor_type {
        elem_type: 10
        shape {
          dim {
            dim_param: "s0"
          }
          dim {
            dim_value: 1024
          }
          dim {
            dim_param: "(((s1 - 1)//8)) + 1"
          }
        }
      }
    }
  }
  value_info {
    name: "mul_6108"
    type {
      tensor_type {
        elem_type: 10
        shape {
          dim {
            dim_param: "s0"
          }
          dim {
            dim_value: 1024
          }
          dim {
            dim_param: "(((s1 - 1)//8)) + 1"
          }
        }
      }
    }
  }
  value_info {
    name: "permute_90"
    type {
      tensor_type {
        elem_type: 10
        shape {
          dim {
            dim_param: "s0"
          }
          dim {
            dim_param: "(((s1 - 1)//8)) + 1"
          }
          dim {
            dim_value: 1024
          }
        }
      }
    }
  }
  value_info {
    name: "permute_91"
    type {
      tensor_type {
        elem_type: 10
        shape {
          dim {
            dim_param: "s0"
          }
          dim {
            dim_value: 1024
          }
          dim {
            dim_param: "(((s1 - 1)//8)) + 1"
          }
        }
      }
    }
  }
  value_info {
    name: "conv1d_89"
    type {
      tensor_type {
        elem_type: 10
        shape {
          dim {
            dim_param: "s0"
          }
          dim {
            dim_value: 1024
          }
          dim {
            dim_param: "(((s1 - 1)//8)) + 3"
          }
        }
      }
    }
  }
  value_info {
    name: "conv1d_90"
    type {
      tensor_type {
        elem_type: 10
        shape {
          dim {
            dim_param: "s0"
          }
          dim {
            dim_value: 1024
          }
          dim {
            dim_param: "(((s1 - 1)//8)) + 3"
          }
        }
      }
    }
  }
  value_info {
    name: "val_3335"
    type {
      tensor_type {
        elem_type: 7
        shape {
          dim {
            dim_value: 1
          }
        }
      }
    }
  }
  value_info {
    name: "val_3338"
    type {
      tensor_type {
        elem_type: 7
        shape {
          dim {
            dim_value: 1
          }
        }
      }
    }
  }
  value_info {
    name: "val_3341"
    type {
      tensor_type {
        elem_type: 7
        shape {
          dim {
            dim_value: 1
          }
        }
      }
    }
  }
  value_info {
    name: "val_3342"
    type {
      tensor_type {
        elem_type: 7
        shape {
          dim {
            dim_value: 1
          }
        }
      }
    }
  }
  value_info {
    name: "slice_219"
    type {
      tensor_type {
        elem_type: 10
        shape {
          dim {
            dim_param: "s0"
          }
          dim {
            dim_value: 1024
          }
          dim {
            dim_param: "(((s1 - 1)//8)) + 1"
          }
        }
      }
    }
  }
  value_info {
    name: "sigmoid_90"
    type {
      tensor_type {
        elem_type: 10
        shape {
          dim {
            dim_param: "s0"
          }
          dim {
            dim_value: 1024
          }
          dim {
            dim_param: "(((s1 - 1)//8)) + 1"
          }
        }
      }
    }
  }
  value_info {
    name: "mul_6136"
    type {
      tensor_type {
        elem_type: 10
        shape {
          dim {
            dim_param: "s0"
          }
          dim {
            dim_value: 1024
          }
          dim {
            dim_param: "(((s1 - 1)//8)) + 1"
          }
        }
      }
    }
  }
  value_info {
    name: "conv1d_91"
    type {
      tensor_type {
        elem_type: 10
        shape {
          dim {
            dim_param: "s0"
          }
          dim {
            dim_value: 1024
          }
          dim {
            dim_param: "(((s1 - 1)//8)) + 1"
          }
        }
      }
    }
  }
  value_info {
    name: "permute_92"
    type {
      tensor_type {
        elem_type: 10
        shape {
          dim {
            dim_param: "s0"
          }
          dim {
            dim_param: "(((s1 - 1)//8)) + 1"
          }
          dim {
            dim_value: 1024
          }
        }
      }
    }
  }
  value_info {
    name: "add_8178"
    type {
      tensor_type {
        elem_type: 10
        shape {
          dim {
            dim_param: "s0"
          }
          dim {
            dim_param: "(((s1 - 1)//8)) + 1"
          }
          dim {
            dim_value: 1024
          }
        }
      }
    }
  }
  value_info {
    name: "layer_norm_113"
    type {
      tensor_type {
        elem_type: 10
        shape {
          dim {
            dim_param: "s0"
          }
          dim {
            dim_param: "(((s1 - 1)//8)) + 1"
          }
          dim {
            dim_value: 1024
          }
        }
      }
    }
  }
  value_info {
    name: "val_3344"
    type {
      tensor_type {
        elem_type: 10
        shape {
          dim {
            dim_param: "s0"
          }
          dim {
            dim_param: "(((s1 - 1)//8)) + 1"
          }
          dim {
            dim_value: 3072
          }
        }
      }
    }
  }
  value_info {
    name: "linear_183"
    type {
      tensor_type {
        elem_type: 10
        shape {
          dim {
            dim_param: "s0"
          }
          dim {
            dim_param: "(((s1 - 1)//8)) + 1"
          }
          dim {
            dim_value: 3072
          }
        }
      }
    }
  }
  value_info {
    name: "split_45_split_0"
    type {
      tensor_type {
        elem_type: 10
        shape {
          dim {
            dim_param: "s0"
          }
          dim {
            dim_param: "(((s1 - 1)//8)) + 1"
          }
          dim {
            dim_value: 1536
          }
        }
      }
    }
  }
  value_info {
    name: "split_45_split_1"
    type {
      tensor_type {
        elem_type: 10
        shape {
          dim {
            dim_param: "s0"
          }
          dim {
            dim_param: "(((s1 - 1)//8)) + 1"
          }
          dim {
            dim_value: 1536
          }
        }
      }
    }
  }
  value_info {
    name: "sigmoid_91"
    type {
      tensor_type {
        elem_type: 10
        shape {
          dim {
            dim_param: "s0"
          }
          dim {
            dim_param: "(((s1 - 1)//8)) + 1"
          }
          dim {
            dim_value: 1536
          }
        }
      }
    }
  }
  value_info {
    name: "mul_6167"
    type {
      tensor_type {
        elem_type: 10
        shape {
          dim {
            dim_param: "s0"
          }
          dim {
            dim_param: "(((s1 - 1)//8)) + 1"
          }
          dim {
            dim_value: 1536
          }
        }
      }
    }
  }
  value_info {
    name: "mul_6171"
    type {
      tensor_type {
        elem_type: 10
        shape {
          dim {
            dim_param: "s0"
          }
          dim {
            dim_param: "(((s1 - 1)//8)) + 1"
          }
          dim {
            dim_value: 1536
          }
        }
      }
    }
  }
  value_info {
    name: "val_3346"
    type {
      tensor_type {
        elem_type: 10
        shape {
          dim {
            dim_param: "s0"
          }
          dim {
            dim_param: "(((s1 - 1)//8)) + 1"
          }
          dim {
            dim_value: 1024
          }
        }
      }
    }
  }
  value_info {
    name: "linear_184"
    type {
      tensor_type {
        elem_type: 10
        shape {
          dim {
            dim_param: "s0"
          }
          dim {
            dim_param: "(((s1 - 1)//8)) + 1"
          }
          dim {
            dim_value: 1024
          }
        }
      }
    }
  }
  value_info {
    name: "scalar_tensor_default_69"
    type {
      tensor_type {
        elem_type: 10
        shape {
        }
      }
    }
  }
  value_info {
    name: "mul_6184"
    type {
      tensor_type {
        elem_type: 10
        shape {
          dim {
            dim_param: "s0"
          }
          dim {
            dim_param: "(((s1 - 1)//8)) + 1"
          }
          dim {
            dim_value: 1024
          }
        }
      }
    }
  }
  value_info {
    name: "add_8227"
    type {
      tensor_type {
        elem_type: 10
        shape {
          dim {
            dim_param: "s0"
          }
          dim {
            dim_param: "(((s1 - 1)//8)) + 1"
          }
          dim {
            dim_value: 1024
          }
        }
      }
    }
  }
  value_info {
    name: "layer_norm_114"
    type {
      tensor_type {
        elem_type: 10
        shape {
          dim {
            dim_param: "s0"
          }
          dim {
            dim_param: "(((s1 - 1)//8)) + 1"
          }
          dim {
            dim_value: 1024
          }
        }
      }
    }
  }
  value_info {
    name: "layer_norm_115"
    type {
      tensor_type {
        elem_type: 10
        shape {
          dim {
            dim_param: "s0"
          }
          dim {
            dim_param: "(((s1 - 1)//8)) + 1"
          }
          dim {
            dim_value: 1024
          }
        }
      }
    }
  }
  value_info {
    name: "val_3348"
    type {
      tensor_type {
        elem_type: 10
        shape {
          dim {
            dim_param: "s0"
          }
          dim {
            dim_param: "(((s1 - 1)//8)) + 1"
          }
          dim {
            dim_value: 3072
          }
        }
      }
    }
  }
  value_info {
    name: "linear_185"
    type {
      tensor_type {
        elem_type: 10
        shape {
          dim {
            dim_param: "s0"
          }
          dim {
            dim_param: "(((s1 - 1)//8)) + 1"
          }
          dim {
            dim_value: 3072
          }
        }
      }
    }
  }
  value_info {
    name: "split_46_split_0"
    type {
      tensor_type {
        elem_type: 10
        shape {
          dim {
            dim_param: "s0"
          }
          dim {
            dim_param: "(((s1 - 1)//8)) + 1"
          }
          dim {
            dim_value: 1536
          }
        }
      }
    }
  }
  value_info {
    name: "split_46_split_1"
    type {
      tensor_type {
        elem_type: 10
        shape {
          dim {
            dim_param: "s0"
          }
          dim {
            dim_param: "(((s1 - 1)//8)) + 1"
          }
          dim {
            dim_value: 1536
          }
        }
      }
    }
  }
  value_info {
    name: "sigmoid_92"
    type {
      tensor_type {
        elem_type: 10
        shape {
          dim {
            dim_param: "s0"
          }
          dim {
            dim_param: "(((s1 - 1)//8)) + 1"
          }
          dim {
            dim_value: 1536
          }
        }
      }
    }
  }
  value_info {
    name: "mul_6209"
    type {
      tensor_type {
        elem_type: 10
        shape {
          dim {
            dim_param: "s0"
          }
          dim {
            dim_param: "(((s1 - 1)//8)) + 1"
          }
          dim {
            dim_value: 1536
          }
        }
      }
    }
  }
  value_info {
    name: "mul_6213"
    type {
      tensor_type {
        elem_type: 10
        shape {
          dim {
            dim_param: "s0"
          }
          dim {
            dim_param: "(((s1 - 1)//8)) + 1"
          }
          dim {
            dim_value: 1536
          }
        }
      }
    }
  }
  value_info {
    name: "val_3350"
    type {
      tensor_type {
        elem_type: 10
        shape {
          dim {
            dim_param: "s0"
          }
          dim {
            dim_param: "(((s1 - 1)//8)) + 1"
          }
          dim {
            dim_value: 1024
          }
        }
      }
    }
  }
  value_info {
    name: "linear_186"
    type {
      tensor_type {
        elem_type: 10
        shape {
          dim {
            dim_param: "s0"
          }
          dim {
            dim_param: "(((s1 - 1)//8)) + 1"
          }
          dim {
            dim_value: 1024
          }
        }
      }
    }
  }
  value_info {
    name: "scalar_tensor_default_70"
    type {
      tensor_type {
        elem_type: 10
        shape {
        }
      }
    }
  }
  value_info {
    name: "mul_6226"
    type {
      tensor_type {
        elem_type: 10
        shape {
          dim {
            dim_param: "s0"
          }
          dim {
            dim_param: "(((s1 - 1)//8)) + 1"
          }
          dim {
            dim_value: 1024
          }
        }
      }
    }
  }
  value_info {
    name: "add_8280"
    type {
      tensor_type {
        elem_type: 10
        shape {
          dim {
            dim_param: "s0"
          }
          dim {
            dim_param: "(((s1 - 1)//8)) + 1"
          }
          dim {
            dim_value: 1024
          }
        }
      }
    }
  }
  value_info {
    name: "layer_norm_116"
    type {
      tensor_type {
        elem_type: 10
        shape {
          dim {
            dim_param: "s0"
          }
          dim {
            dim_param: "(((s1 - 1)//8)) + 1"
          }
          dim {
            dim_value: 1024
          }
        }
      }
    }
  }
  value_info {
    name: "val_3352"
    type {
      tensor_type {
        elem_type: 10
        shape {
          dim {
            dim_param: "s0"
          }
          dim {
            dim_param: "(((s1 - 1)//8)) + 1"
          }
          dim {
            dim_value: 1024
          }
        }
      }
    }
  }
  value_info {
    name: "linear_187"
    type {
      tensor_type {
        elem_type: 10
        shape {
          dim {
            dim_param: "s0"
          }
          dim {
            dim_param: "(((s1 - 1)//8)) + 1"
          }
          dim {
            dim_value: 1024
          }
        }
      }
    }
  }
  value_info {
    name: "val_3353"
    type {
      tensor_type {
        elem_type: 7
        shape {
          dim {
            dim_value: 1
          }
        }
      }
    }
  }
  value_info {
    name: "val_3354"
    type {
      tensor_type {
        elem_type: 7
        shape {
          dim {
            dim_value: 1
          }
        }
      }
    }
  }
  value_info {
    name: "val_3355"
    type {
      tensor_type {
        elem_type: 7
        shape {
          dim {
            dim_value: 1
          }
        }
      }
    }
  }
  value_info {
    name: "val_3356"
    type {
      tensor_type {
        elem_type: 7
        shape {
          dim {
            dim_value: 1
          }
        }
      }
    }
  }
  value_info {
    name: "val_3357"
    type {
      tensor_type {
        elem_type: 7
        shape {
          dim {
            dim_value: 4
          }
        }
      }
    }
  }
  value_info {
    name: "view_100"
    type {
      tensor_type {
        elem_type: 10
        shape {
          dim {
            dim_param: "s0"
          }
          dim {
            dim_param: "(((s1 - 1)//8)) + 1"
          }
          dim {
            dim_value: 16
          }
          dim {
            dim_value: 64
          }
        }
      }
    }
  }
  value_info {
    name: "val_3360"
    type {
      tensor_type {
        elem_type: 10
        shape {
          dim {
            dim_param: "s0"
          }
          dim {
            dim_param: "(((s1 - 1)//8)) + 1"
          }
          dim {
            dim_value: 1024
          }
        }
      }
    }
  }
  value_info {
    name: "linear_188"
    type {
      tensor_type {
        elem_type: 10
        shape {
          dim {
            dim_param: "s0"
          }
          dim {
            dim_param: "(((s1 - 1)//8)) + 1"
          }
          dim {
            dim_value: 1024
          }
        }
      }
    }
  }
  value_info {
    name: "val_3361"
    type {
      tensor_type {
        elem_type: 7
        shape {
          dim {
            dim_value: 1
          }
        }
      }
    }
  }
  value_info {
    name: "val_3362"
    type {
      tensor_type {
        elem_type: 7
        shape {
          dim {
            dim_value: 1
          }
        }
      }
    }
  }
  value_info {
    name: "val_3363"
    type {
      tensor_type {
        elem_type: 7
        shape {
          dim {
            dim_value: 1
          }
        }
      }
    }
  }
  value_info {
    name: "val_3364"
    type {
      tensor_type {
        elem_type: 7
        shape {
          dim {
            dim_value: 1
          }
        }
      }
    }
  }
  value_info {
    name: "val_3365"
    type {
      tensor_type {
        elem_type: 7
        shape {
          dim {
            dim_value: 4
          }
        }
      }
    }
  }
  value_info {
    name: "view_101"
    type {
      tensor_type {
        elem_type: 10
        shape {
          dim {
            dim_param: "s0"
          }
          dim {
            dim_param: "(((s1 - 1)//8)) + 1"
          }
          dim {
            dim_value: 16
          }
          dim {
            dim_value: 64
          }
        }
      }
    }
  }
  value_info {
    name: "val_3368"
    type {
      tensor_type {
        elem_type: 10
        shape {
          dim {
            dim_param: "s0"
          }
          dim {
            dim_param: "(((s1 - 1)//8)) + 1"
          }
          dim {
            dim_value: 1024
          }
        }
      }
    }
  }
  value_info {
    name: "linear_189"
    type {
      tensor_type {
        elem_type: 10
        shape {
          dim {
            dim_param: "s0"
          }
          dim {
            dim_param: "(((s1 - 1)//8)) + 1"
          }
          dim {
            dim_value: 1024
          }
        }
      }
    }
  }
  value_info {
    name: "val_3369"
    type {
      tensor_type {
        elem_type: 7
        shape {
          dim {
            dim_value: 1
          }
        }
      }
    }
  }
  value_info {
    name: "val_3370"
    type {
      tensor_type {
        elem_type: 7
        shape {
          dim {
            dim_value: 1
          }
        }
      }
    }
  }
  value_info {
    name: "val_3371"
    type {
      tensor_type {
        elem_type: 7
        shape {
          dim {
            dim_value: 1
          }
        }
      }
    }
  }
  value_info {
    name: "val_3372"
    type {
      tensor_type {
        elem_type: 7
        shape {
          dim {
            dim_value: 1
          }
        }
      }
    }
  }
  value_info {
    name: "val_3373"
    type {
      tensor_type {
        elem_type: 7
        shape {
          dim {
            dim_value: 4
          }
        }
      }
    }
  }
  value_info {
    name: "view_102"
    type {
      tensor_type {
        elem_type: 10
        shape {
          dim {
            dim_param: "s0"
          }
          dim {
            dim_param: "(((s1 - 1)//8)) + 1"
          }
          dim {
            dim_value: 16
          }
          dim {
            dim_value: 64
          }
        }
      }
    }
  }
  value_info {
    name: "transpose_116"
    type {
      tensor_type {
        elem_type: 10
        shape {
          dim {
            dim_param: "s0"
          }
          dim {
            dim_value: 16
          }
          dim {
            dim_param: "(((s1 - 1)//8)) + 1"
          }
          dim {
            dim_value: 64
          }
        }
      }
    }
  }
  value_info {
    name: "scalar_tensor_default_71"
    type {
      tensor_type {
        elem_type: 10
        shape {
        }
      }
    }
  }
  value_info {
    name: "mul_6257"
    type {
      tensor_type {
        elem_type: 10
        shape {
          dim {
            dim_param: "s0"
          }
          dim {
            dim_value: 16
          }
          dim {
            dim_param: "(((s1 - 1)//8)) + 1"
          }
          dim {
            dim_value: 64
          }
        }
      }
    }
  }
  value_info {
    name: "transpose_117"
    type {
      tensor_type {
        elem_type: 10
        shape {
          dim {
            dim_param: "s0"
          }
          dim {
            dim_value: 16
          }
          dim {
            dim_param: "(((s1 - 1)//8)) + 1"
          }
          dim {
            dim_value: 64
          }
        }
      }
    }
  }
  value_info {
    name: "transpose_118"
    type {
      tensor_type {
        elem_type: 10
        shape {
          dim {
            dim_param: "s0"
          }
          dim {
            dim_value: 16
          }
          dim {
            dim_param: "(((s1 - 1)//8)) + 1"
          }
          dim {
            dim_value: 64
          }
        }
      }
    }
  }
  value_info {
    name: "transpose_119"
    type {
      tensor_type {
        elem_type: 10
        shape {
          dim {
            dim_param: "s0"
          }
          dim {
            dim_value: 16
          }
          dim {
            dim_value: 64
          }
          dim {
            dim_param: "(((s1 - 1)//8)) + 1"
          }
        }
      }
    }
  }
  value_info {
    name: "matmul_46"
    type {
      tensor_type {
        elem_type: 10
        shape {
          dim {
            dim_param: "s0"
          }
          dim {
            dim_value: 16
          }
          dim {
            dim_param: "(((s1 - 1)//8)) + 1"
          }
          dim {
            dim_param: "(((s1 - 1)//8)) + 1"
          }
        }
      }
    }
  }
  value_info {
    name: "add_8346"
    type {
      tensor_type {
        elem_type: 10
        shape {
          dim {
            dim_param: "s0"
          }
          dim {
            dim_value: 16
          }
          dim {
            dim_param: "(((s1 - 1)//8)) + 1"
          }
          dim {
            dim_param: "(((s1 - 1)//8)) + 1"
          }
        }
      }
    }
  }
  value_info {
    name: "val_3375"
    type {
      tensor_type {
        elem_type: 10
        shape {
        }
      }
    }
  }
  value_info {
    name: "masked_fill_48"
    type {
      tensor_type {
        elem_type: 10
        shape {
          dim {
            dim_param: "s0"
          }
          dim {
            dim_value: 16
          }
          dim {
            dim_param: "CeilToInt(IntTrueDiv(s1, 8))"
          }
          dim {
            dim_param: "(((s1 - 1)//8)) + 1"
          }
        }
      }
    }
  }
  value_info {
    name: "softmax_23"
    type {
      tensor_type {
        elem_type: 10
        shape {
          dim {
            dim_param: "s0"
          }
          dim {
            dim_value: 16
          }
          dim {
            dim_param: "CeilToInt(IntTrueDiv(s1, 8))"
          }
          dim {
            dim_param: "(((s1 - 1)//8)) + 1"
          }
        }
      }
    }
  }
  value_info {
    name: "val_3376"
    type {
      tensor_type {
        elem_type: 10
        shape {
        }
      }
    }
  }
  value_info {
    name: "masked_fill_49"
    type {
      tensor_type {
        elem_type: 10
        shape {
          dim {
            dim_param: "s0"
          }
          dim {
            dim_value: 16
          }
          dim {
            dim_param: "CeilToInt(IntTrueDiv(s1, 8))"
          }
          dim {
            dim_param: "(((s1 - 1)//8)) + 1"
          }
        }
      }
    }
  }
  value_info {
    name: "matmul_47"
    type {
      tensor_type {
        elem_type: 10
        shape {
          dim {
            dim_param: "s0"
          }
          dim {
            dim_value: 16
          }
          dim {
            dim_param: "CeilToInt(IntTrueDiv(s1, 8))"
          }
          dim {
            dim_value: 64
          }
        }
      }
    }
  }
  value_info {
    name: "transpose_120"
    type {
      tensor_type {
        elem_type: 10
        shape {
          dim {
            dim_param: "s0"
          }
          dim {
            dim_param: "CeilToInt(IntTrueDiv(s1, 8))"
          }
          dim {
            dim_value: 16
          }
          dim {
            dim_value: 64
          }
        }
      }
    }
  }
  value_info {
    name: "val_3377"
    type {
      tensor_type {
        elem_type: 7
        shape {
          dim {
            dim_value: 1
          }
        }
      }
    }
  }
  value_info {
    name: "val_3378"
    type {
      tensor_type {
        elem_type: 7
        shape {
          dim {
            dim_value: 1
          }
        }
      }
    }
  }
  value_info {
    name: "val_3379"
    type {
      tensor_type {
        elem_type: 7
        shape {
          dim {
            dim_value: 1
          }
        }
      }
    }
  }
  value_info {
    name: "val_3380"
    type {
      tensor_type {
        elem_type: 7
        shape {
          dim {
            dim_value: 1
          }
        }
      }
    }
  }
  value_info {
    name: "val_3381"
    type {
      tensor_type {
        elem_type: 7
        shape {
          dim {
            dim_value: 3
          }
        }
      }
    }
  }
  value_info {
    name: "view_103"
    type {
      tensor_type {
        elem_type: 10
        shape {
          dim {
            dim_param: "s0"
          }
          dim {
            dim_param: "CeilToInt(IntTrueDiv(s1, 8))"
          }
          dim {
            dim_value: 1024
          }
        }
      }
    }
  }
  value_info {
    name: "val_3384"
    type {
      tensor_type {
        elem_type: 10
        shape {
          dim {
            dim_param: "s0"
          }
          dim {
            dim_param: "CeilToInt(IntTrueDiv(s1, 8))"
          }
          dim {
            dim_value: 1024
          }
        }
      }
    }
  }
  value_info {
    name: "linear_190"
    type {
      tensor_type {
        elem_type: 10
        shape {
          dim {
            dim_param: "s0"
          }
          dim {
            dim_param: "CeilToInt(IntTrueDiv(s1, 8))"
          }
          dim {
            dim_value: 1024
          }
        }
      }
    }
  }
  value_info {
    name: "add_8400"
    type {
      tensor_type {
        elem_type: 10
        shape {
          dim {
            dim_param: "s0"
          }
          dim {
            dim_param: "(((s1 - 1)//8)) + 1"
          }
          dim {
            dim_value: 1024
          }
        }
      }
    }
  }
  value_info {
    name: "layer_norm_117"
    type {
      tensor_type {
        elem_type: 10
        shape {
          dim {
            dim_param: "s0"
          }
          dim {
            dim_param: "(((s1 - 1)//8)) + 1"
          }
          dim {
            dim_value: 1024
          }
        }
      }
    }
  }
  value_info {
    name: "permute_93"
    type {
      tensor_type {
        elem_type: 10
        shape {
          dim {
            dim_param: "s0"
          }
          dim {
            dim_value: 1024
          }
          dim {
            dim_param: "(((s1 - 1)//8)) + 1"
          }
        }
      }
    }
  }
  value_info {
    name: "conv1d_92"
    type {
      tensor_type {
        elem_type: 10
        shape {
          dim {
            dim_param: "s0"
          }
          dim {
            dim_value: 2048
          }
          dim {
            dim_param: "(((s1 - 1)//8)) + 1"
          }
        }
      }
    }
  }
  value_info {
    name: "val_3397"
    type {
      tensor_type {
        elem_type: 7
        shape {
          dim {
            dim_value: 1
          }
        }
      }
    }
  }
  value_info {
    name: "val_3400"
    type {
      tensor_type {
        elem_type: 7
        shape {
          dim {
            dim_value: 1
          }
        }
      }
    }
  }
  value_info {
    name: "val_3403"
    type {
      tensor_type {
        elem_type: 7
        shape {
          dim {
            dim_value: 1
          }
        }
      }
    }
  }
  value_info {
    name: "val_3404"
    type {
      tensor_type {
        elem_type: 7
        shape {
          dim {
            dim_value: 1
          }
        }
      }
    }
  }
  value_info {
    name: "slice_221"
    type {
      tensor_type {
        elem_type: 10
        shape {
          dim {
            dim_param: "s0"
          }
          dim {
            dim_value: 1024
          }
          dim {
            dim_param: "(((s1 - 1)//8)) + 1"
          }
        }
      }
    }
  }
  value_info {
    name: "add_8429"
    type {
      tensor_type {
        elem_type: 10
        shape {
          dim {
            dim_param: "s0"
          }
          dim {
            dim_value: 1024
          }
          dim {
            dim_param: "(((s1 - 1)//8)) + 1"
          }
        }
      }
    }
  }
  value_info {
    name: "val_3427"
    type {
      tensor_type {
        elem_type: 7
        shape {
          dim {
            dim_value: 1
          }
        }
      }
    }
  }
  value_info {
    name: "val_3430"
    type {
      tensor_type {
        elem_type: 7
        shape {
          dim {
            dim_value: 1
          }
        }
      }
    }
  }
  value_info {
    name: "val_3433"
    type {
      tensor_type {
        elem_type: 7
        shape {
          dim {
            dim_value: 1
          }
        }
      }
    }
  }
  value_info {
    name: "val_3434"
    type {
      tensor_type {
        elem_type: 7
        shape {
          dim {
            dim_value: 1
          }
        }
      }
    }
  }
  value_info {
    name: "slice_224"
    type {
      tensor_type {
        elem_type: 10
        shape {
          dim {
            dim_param: "s0"
          }
          dim {
            dim_value: 1024
          }
          dim {
            dim_param: "(((s1 - 1)//8)) + 1"
          }
        }
      }
    }
  }
  value_info {
    name: "add_8446"
    type {
      tensor_type {
        elem_type: 10
        shape {
          dim {
            dim_param: "s0"
          }
          dim {
            dim_value: 1024
          }
          dim {
            dim_param: "(((s1 - 1)//8)) + 1"
          }
        }
      }
    }
  }
  value_info {
    name: "sigmoid_93"
    type {
      tensor_type {
        elem_type: 10
        shape {
          dim {
            dim_param: "s0"
          }
          dim {
            dim_value: 1024
          }
          dim {
            dim_param: "(((s1 - 1)//8)) + 1"
          }
        }
      }
    }
  }
  value_info {
    name: "mul_6357"
    type {
      tensor_type {
        elem_type: 10
        shape {
          dim {
            dim_param: "s0"
          }
          dim {
            dim_value: 1024
          }
          dim {
            dim_param: "(((s1 - 1)//8)) + 1"
          }
        }
      }
    }
  }
  value_info {
    name: "mul_6361"
    type {
      tensor_type {
        elem_type: 10
        shape {
          dim {
            dim_param: "s0"
          }
          dim {
            dim_value: 1024
          }
          dim {
            dim_param: "(((s1 - 1)//8)) + 1"
          }
        }
      }
    }
  }
  value_info {
    name: "permute_94"
    type {
      tensor_type {
        elem_type: 10
        shape {
          dim {
            dim_param: "s0"
          }
          dim {
            dim_param: "(((s1 - 1)//8)) + 1"
          }
          dim {
            dim_value: 1024
          }
        }
      }
    }
  }
  value_info {
    name: "permute_95"
    type {
      tensor_type {
        elem_type: 10
        shape {
          dim {
            dim_param: "s0"
          }
          dim {
            dim_value: 1024
          }
          dim {
            dim_param: "(((s1 - 1)//8)) + 1"
          }
        }
      }
    }
  }
  value_info {
    name: "conv1d_93"
    type {
      tensor_type {
        elem_type: 10
        shape {
          dim {
            dim_param: "s0"
          }
          dim {
            dim_value: 1024
          }
          dim {
            dim_param: "(((s1 - 1)//8)) + 3"
          }
        }
      }
    }
  }
  value_info {
    name: "conv1d_94"
    type {
      tensor_type {
        elem_type: 10
        shape {
          dim {
            dim_param: "s0"
          }
          dim {
            dim_value: 1024
          }
          dim {
            dim_param: "(((s1 - 1)//8)) + 3"
          }
        }
      }
    }
  }
  value_info {
    name: "val_3467"
    type {
      tensor_type {
        elem_type: 7
        shape {
          dim {
            dim_value: 1
          }
        }
      }
    }
  }
  value_info {
    name: "val_3470"
    type {
      tensor_type {
        elem_type: 7
        shape {
          dim {
            dim_value: 1
          }
        }
      }
    }
  }
  value_info {
    name: "val_3473"
    type {
      tensor_type {
        elem_type: 7
        shape {
          dim {
            dim_value: 1
          }
        }
      }
    }
  }
  value_info {
    name: "val_3474"
    type {
      tensor_type {
        elem_type: 7
        shape {
          dim {
            dim_value: 1
          }
        }
      }
    }
  }
  value_info {
    name: "slice_228"
    type {
      tensor_type {
        elem_type: 10
        shape {
          dim {
            dim_param: "s0"
          }
          dim {
            dim_value: 1024
          }
          dim {
            dim_param: "(((s1 - 1)//8)) + 1"
          }
        }
      }
    }
  }
  value_info {
    name: "sigmoid_94"
    type {
      tensor_type {
        elem_type: 10
        shape {
          dim {
            dim_param: "s0"
          }
          dim {
            dim_value: 1024
          }
          dim {
            dim_param: "(((s1 - 1)//8)) + 1"
          }
        }
      }
    }
  }
  value_info {
    name: "mul_6389"
    type {
      tensor_type {
        elem_type: 10
        shape {
          dim {
            dim_param: "s0"
          }
          dim {
            dim_value: 1024
          }
          dim {
            dim_param: "(((s1 - 1)//8)) + 1"
          }
        }
      }
    }
  }
  value_info {
    name: "conv1d_95"
    type {
      tensor_type {
        elem_type: 10
        shape {
          dim {
            dim_param: "s0"
          }
          dim {
            dim_value: 1024
          }
          dim {
            dim_param: "(((s1 - 1)//8)) + 1"
          }
        }
      }
    }
  }
  value_info {
    name: "permute_96"
    type {
      tensor_type {
        elem_type: 10
        shape {
          dim {
            dim_param: "s0"
          }
          dim {
            dim_param: "(((s1 - 1)//8)) + 1"
          }
          dim {
            dim_value: 1024
          }
        }
      }
    }
  }
  value_info {
    name: "add_8511"
    type {
      tensor_type {
        elem_type: 10
        shape {
          dim {
            dim_param: "s0"
          }
          dim {
            dim_param: "(((s1 - 1)//8)) + 1"
          }
          dim {
            dim_value: 1024
          }
        }
      }
    }
  }
  value_info {
    name: "layer_norm_118"
    type {
      tensor_type {
        elem_type: 10
        shape {
          dim {
            dim_param: "s0"
          }
          dim {
            dim_param: "(((s1 - 1)//8)) + 1"
          }
          dim {
            dim_value: 1024
          }
        }
      }
    }
  }
  value_info {
    name: "val_3476"
    type {
      tensor_type {
        elem_type: 10
        shape {
          dim {
            dim_param: "s0"
          }
          dim {
            dim_param: "(((s1 - 1)//8)) + 1"
          }
          dim {
            dim_value: 3072
          }
        }
      }
    }
  }
  value_info {
    name: "linear_191"
    type {
      tensor_type {
        elem_type: 10
        shape {
          dim {
            dim_param: "s0"
          }
          dim {
            dim_param: "(((s1 - 1)//8)) + 1"
          }
          dim {
            dim_value: 3072
          }
        }
      }
    }
  }
  value_info {
    name: "split_47_split_0"
    type {
      tensor_type {
        elem_type: 10
        shape {
          dim {
            dim_param: "s0"
          }
          dim {
            dim_param: "(((s1 - 1)//8)) + 1"
          }
          dim {
            dim_value: 1536
          }
        }
      }
    }
  }
  value_info {
    name: "split_47_split_1"
    type {
      tensor_type {
        elem_type: 10
        shape {
          dim {
            dim_param: "s0"
          }
          dim {
            dim_param: "(((s1 - 1)//8)) + 1"
          }
          dim {
            dim_value: 1536
          }
        }
      }
    }
  }
  value_info {
    name: "sigmoid_95"
    type {
      tensor_type {
        elem_type: 10
        shape {
          dim {
            dim_param: "s0"
          }
          dim {
            dim_param: "(((s1 - 1)//8)) + 1"
          }
          dim {
            dim_value: 1536
          }
        }
      }
    }
  }
  value_info {
    name: "mul_6420"
    type {
      tensor_type {
        elem_type: 10
        shape {
          dim {
            dim_param: "s0"
          }
          dim {
            dim_param: "(((s1 - 1)//8)) + 1"
          }
          dim {
            dim_value: 1536
          }
        }
      }
    }
  }
  value_info {
    name: "mul_6424"
    type {
      tensor_type {
        elem_type: 10
        shape {
          dim {
            dim_param: "s0"
          }
          dim {
            dim_param: "(((s1 - 1)//8)) + 1"
          }
          dim {
            dim_value: 1536
          }
        }
      }
    }
  }
  value_info {
    name: "val_3478"
    type {
      tensor_type {
        elem_type: 10
        shape {
          dim {
            dim_param: "s0"
          }
          dim {
            dim_param: "(((s1 - 1)//8)) + 1"
          }
          dim {
            dim_value: 1024
          }
        }
      }
    }
  }
  value_info {
    name: "linear_192"
    type {
      tensor_type {
        elem_type: 10
        shape {
          dim {
            dim_param: "s0"
          }
          dim {
            dim_param: "(((s1 - 1)//8)) + 1"
          }
          dim {
            dim_value: 1024
          }
        }
      }
    }
  }
  value_info {
    name: "scalar_tensor_default_72"
    type {
      tensor_type {
        elem_type: 10
        shape {
        }
      }
    }
  }
  value_info {
    name: "mul_6437"
    type {
      tensor_type {
        elem_type: 10
        shape {
          dim {
            dim_param: "s0"
          }
          dim {
            dim_param: "(((s1 - 1)//8)) + 1"
          }
          dim {
            dim_value: 1024
          }
        }
      }
    }
  }
  value_info {
    name: "add_8560"
    type {
      tensor_type {
        elem_type: 10
        shape {
          dim {
            dim_param: "s0"
          }
          dim {
            dim_param: "(((s1 - 1)//8)) + 1"
          }
          dim {
            dim_value: 1024
          }
        }
      }
    }
  }
  value_info {
    name: "layer_norm_119"
    type {
      tensor_type {
        elem_type: 10
        shape {
          dim {
            dim_param: "s0"
          }
          dim {
            dim_param: "(((s1 - 1)//8)) + 1"
          }
          dim {
            dim_value: 1024
          }
        }
      }
    }
  }
  value_info {
    name: "val_3479"
    type {
      tensor_type {
        elem_type: 7
        shape {
          dim {
            dim_value: 1
          }
        }
      }
    }
  }
  value_info {
    name: "val_3480"
    type {
      tensor_type {
        elem_type: 7
        shape {
          dim {
            dim_value: 1
          }
        }
      }
    }
  }
  value_info {
    name: "val_3481"
    type {
      tensor_type {
        elem_type: 7
        shape {
          dim {
            dim_value: 3
          }
        }
      }
    }
  }
  value_info {
    name: "view_104"
    type {
      tensor_type {
        elem_type: 10
        shape {
          dim {
            dim_param: "s0"
          }
          dim {
            dim_param: "(((s1 - 1)//8)) + 1"
          }
          dim {
            dim_value: 1024
          }
        }
      }
    }
  }
  value_info {
    name: "_to_copy_40"
    type {
      tensor_type {
        elem_type: 7
        shape {
          dim {
            dim_value: 1
          }
        }
      }
    }
  }
  value_info {
    name: "eq_4297"
    type {
      tensor_type {
        elem_type: 9
        shape {
          dim {
            dim_value: 1
          }
        }
      }
    }
  }
  value_info {
    name: "getitem_96"
    type {
      tensor_type {
        elem_type: 10
        shape {
          dim {
            dim_param: "s0"
          }
          dim {
            dim_param: "(((s1 - 1)//8)) + 1"
          }
          dim {
            dim_value: 3072
          }
        }
      }
    }
  }
  value_info {
    name: "val_3504"
    type {
      tensor_type {
        elem_type: 7
        shape {
        }
      }
    }
  }
  value_info {
    name: "val_3505"
    type {
      tensor_type {
        elem_type: 7
        shape {
        }
      }
    }
  }
  value_info {
    name: "arange_8"
    type {
      tensor_type {
        elem_type: 7
        shape {
          dim {
            dim_param: "(((s1 - 1)//8)) + 1"
          }
        }
      }
    }
  }
  value_info {
    name: "val_3506"
    type {
      tensor_type {
        elem_type: 7
        shape {
          dim {
            dim_value: 1
          }
        }
      }
    }
  }
  value_info {
    name: "val_3507"
    type {
      tensor_type {
        elem_type: 7
        shape {
          dim {
            dim_value: 1
          }
        }
      }
    }
  }
  value_info {
    name: "val_3508"
    type {
      tensor_type {
        elem_type: 7
        shape {
          dim {
            dim_value: 2
          }
        }
      }
    }
  }
  value_info {
    name: "size_1_7"
    type {
      tensor_type {
        elem_type: 7
        shape {
          dim {
            dim_value: 2
          }
        }
      }
    }
  }
  value_info {
    name: "expand_6"
    type {
      tensor_type {
        elem_type: 7
        shape {
          dim {
            dim_param: "s0"
          }
          dim {
            dim_param: "(((s1 - 1)//8)) + 1"
          }
        }
      }
    }
  }
  value_info {
    name: "dim_0_20"
    type {
      tensor_type {
        elem_type: 7
        shape {
        }
      }
    }
  }
  value_info {
    name: "unsqueeze_19"
    type {
      tensor_type {
        elem_type: 7
        shape {
          dim {
            dim_param: "s0"
          }
          dim {
            dim_value: 1
          }
        }
      }
    }
  }
  value_info {
    name: "lt_24"
    type {
      tensor_type {
        elem_type: 9
        shape {
          dim {
            dim_param: "s0"
          }
          dim {
            dim_param: "(((s1 - 1)//8)) + 1"
          }
        }
      }
    }
  }
  value_info {
    name: "val_3509"
    type {
      tensor_type {
        elem_type: 7
        shape {
          dim {
            dim_value: 2
          }
          dim {
            dim_param: "unk__623"
          }
        }
      }
    }
  }
  value_info {
    name: "val_3510"
    type {
      tensor_type {
        elem_type: 7
        shape {
          dim {
            dim_param: "unk__623"
          }
          dim {
            dim_value: 2
          }
        }
      }
    }
  }
  value_info {
    name: "index_6"
    type {
      tensor_type {
        elem_type: 10
        shape {
          dim {
            dim_param: "u2"
          }
          dim {
            dim_value: 3072
          }
        }
      }
    }
  }
  value_info {
    name: "val_3513"
    type {
      tensor_type {
        elem_type: 7
        shape {
          dim {
            dim_value: 2
          }
        }
      }
    }
  }
}
opset_import {
  domain: "pkg.onnxscript.torch_lib.common"
  version: 1
}
opset_import {
  domain: ""
  version: 18
}
opset_import {
  domain: "pkg.onnxscript.torch_lib"
  version: 1
}
opset_import {
  domain: "pkg.torch.__subgraph__"
  version: 1
}
opset_import {
  domain: "com.microsoft"
  version: 1
}
